saved_models/FastKAN_MNIST_checkpoint.pth (torch, 436731 bytes, 8 tensors)

layer1.grid_points f4 [3]
-1.6998678 0.08892549 0.817048
00000000: 4595 d9bf 911e b63d 0f2a 513f

layer1.spline_weight f4 [34, 784, 3]
-0.11093086 0.17497647 0.0042509343 -0.15308982 0.057452265 -0.086383045 0.061541375 0.10042658
-0.0819056 -0.010917433 -0.2161624 -0.0538116 0.046190303 0.063233234 0.022532733 -0.07098536
-0.028189346 -0.0340058 -0.20219699 -0.05245378 -0.16377135 0.026633022 -0.08130399 -0.24349281
0.22597104 0.09247915 -0.01843943 -0.25707102 -0.09926917 -0.14365691 -0.03025452 0.040019996
-0.0102677 0.066246696 -0.1858099 -0.07390941 0.1484907 -0.16189635 -0.10750757 0.082911104
0.12706332 0.11761982 0.23740532 0.034414027 0.25413382 -0.08483866 -0.026743323 -0.014163154
0.0332176 -0.04181869 -0.065806024 -0.022152917 -0.090582095 0.12283946 -0.09511392 0.01917436
-0.21012172 0.01612159 -0.041172713 0.036067445 -0.12941428 -0.023811271 -0.03565949 -0.061983075
-0.043222573 0.08338171 -0.17209554 0.04742684 0.020149456 0.13786405 0.044953007 -0.04250166
-0.13694781 0.16016077 -0.08895549 -0.005521453 0.054907523 0.0021963695 0.12796983 0.0456976
-0.15856177 -0.032816973 -0.2658344 -0.00710512 -0.1760684 -0.06524701 0.027915228 0.12453113
-0.09877259 -0.16247942 0.06827262 0.10352523 0.05164162 -0.16996396 -0.11199865 0.022281008
0.11239964 -0.11535988 -0.034209933 0.13545859 0.06435158 -0.108824156 -0.028392462 -0.07553055
-0.4073827 -0.031547654 0.18906286 -0.16015185 0.17089112 0.08038419 -0.32107398 -0.117445655
0.0137448795 -0.26017618 0.074113175 -0.04494993 0.05573701 -0.2452752 0.04818923 0.057609778
-0.20561908 -0.14268625 -0.105183184 0.0226739 -0.23959805 -0.17872095 0.21079665 -0.15297303
-0.027677238 0.1508207 0.116464294 0.30479822 -0.050472476 0.096414536 -0.026012965 0.112545684
-0.096769944 -0.04251879 -0.06928117 0.020521363 0.024625536 0.105924845 -0.21667911 -0.0380713
0.0038264068 -0.12643465 0.18749155 -0.10678768 -0.17315553 -0.06276253 -0.23984328 -0.00485888
-0.013225532 -0.08027876 -0.077410795 -0.10217113 -0.22232041 0.06294135 0.010307422 -0.092178024
0.121693626 0.030157905 -0.073580116 -0.10388821 -0.0003112989 -0.056032542 0.09500364 -0.21775803
-0.055992693 0.051286332 -0.11451632 -0.08609834 -0.24804127 0.07853802 0.036510736 -0.07621775
-0.017795036 0.15000384 -0.21048835 -0.087336674 -0.031739354 -0.09047782 0.02546719 -0.019594837
-0.048855606 0.010313751 0.06267835 -0.20448563 0.057716306 -0.07435824 -0.08407501 0.16679175
-0.10720901 -0.11106702 -0.1919905 -0.13043535 -0.02444581 0.009042857 -0.001518664 0.13696305
0.11837344 -0.033394117 -0.14716567 0.0896752 0.03820544 0.21727008 -0.1469443 0.05002118
0.11492039 0.038732644 -0.1934973 0.20195656 0.24356581 -0.01530189 0.041523248 0.10135461
0.030432237 -0.03389969 0.1331497 -0.029668508 -0.09078384 0.21591118 -0.04210761 -0.04722708
-0.045909207 0.05656997 0.0076012868 -0.0327544 -0.10246915 -0.08559766 0.015973512 -0.11867875
0.07648685 0.06690353 -0.029093247 -0.094788425 0.17976022 -0.048360765 0.106988125 0.058887027
0.11350792 -0.119016804 0.11198582 -0.015007187 -0.11154906 0.300494 0.15305606 -0.014622753
0.043275047 -0.11629425 0.17765972 -0.033635776 0.026821794 0.000624032 0.023359863 0.097180575
00000000: b82f e3bd 082d 333e 6c4b 8b3b 94c3 1cbe
00000010: 1153 6b3d 98e9 b0bd cf12 7c3d 73ac cd3d
00000020: 20be a7bd 08df 32bc ad59 5dbe 8d69 5cbd
00000030: 0b32 3d3d 6d80 813d 9196 b83c c660 91bd
00000040: 58ed e6bc aa49 0bbd ba0c 4fbe c6d9 56bd
00000050: adb3 27be 7f2d da3c b582 a6bd 2e56 79be
00000060: f464 673e b565 bd3d 4a0e 97bc d09e 83be
00000070: a24d cbbd cc1a 13be 54d8 f7bc 02ec 233d
00000080: db39 28bc 59ac 873d f344 3ebe d15d 97bd
00000090: f20d 183e 28c8 25be ee2c dcbd 4ccd a93d
000000a0: e31c 023e a9e2 f03d 611a 733e b9f5 0c3d
000000b0: d41d 823e e4bf adbd d014 dbbc 930c 68bc
000000c0: 2e0f 083d 134a 2bbd 4fc5 86bd 097a b5bc
000000d0: 1b83 b9bd 4193 fb3d 16cb c2bd 8c13 9d3c
000000e0: 262a 57be 6d11 843c b8a4 28bd 75bb 133d
000000f0: 2d85 04be db0f c3bc af0f 12bd f7e1 7dbd
00000100: 270a 31bd 08c4 aa3d d039 30be a542 423d
00000110: 7910 a53c 3c2c 0d3e a520 383d 3816 2ebd
00000120: 0c3c 0cbe 2f01 243e 4c2e b6bd 4eed b4bb
00000130: b6e6 603d f7f0 0f3b 860a 033e 682d 3b3d
00000140: 045e 22be 176b 06bd 721b 88be 11d2 e8bb
00000150: 464b 34be 39a0 85bd 7aae e43c 2d0a ff3d
00000160: 4949 cabd 0161 26be 84d2 8b3d 0905 d43d
00000170: 2a86 533d 080b 2ebe 8c5f e5bd a986 b63c
00000180: c831 e63d cd41 ecbd b71f 0cbd a8b5 0a3e
00000190: c3ca 833d 33df debd 4f97 e8bc c3af 9abd
000001a0: 7794 d0be 1d38 01bd b299 413e d9fe 23be
000001b0: 15fe 2e3e 77a0 a43d cf63 a4be 5987 f0bd
000001c0: 3432 613c d035 85be a6c8 973d 6b1d 38bd
000001d0: 7e4c 643d 6c29 7bbe 1262 453d 3bf8 6b3d
000001e0: cf8d 52be 581c 12be 486a d7bd 9dbe b93c
000001f0: 3159 75be a002 37be 14db 573e f6a4 1cbe
00000200: 60bb e2bc be70 1a3e d584 ee3d 830e 9c3e
00000210: 3abc 4ebd fc74 c53d 2419 d5bc 5a7e e63d
00000220: 522f c6bd 2f28 2ebd 49e3 8dbd 6b1c a83c
00000230: 7ebb c93c 20ef d83d 21e1 5dbe a7f0 1bbd
00000240: 74c4 7a3b 1678 01be c9fd 3f3e 80b3 dabd
00000250: af4f 31be a489 80bd 7a99 75be 3d37 9fbb
00000260: e7af 58bc 3169 a4bd 8d89 9ebd 193f d1bd
00000270: f6a7 63be 65e7 803d 76e0 283c d5c7 bcbd
00000280: 823a f93d b60d f73c 2cb1 96bd 58c3 d4bd
00000290: d535 a3b9 6182 65bd 4591 c23d f6fb 5ebe
000002a0: 9858 65bd 9e11 523d 8887 eabd 5454 b0bd
000002b0: 88fe 7dbe 8bd8 a03d 488c 153d 0d18 9cbd
000002c0: e5c6 91bc 9b9a 193e 428a 57be 92dd b2bd
000002d0: 2001 02bd 6f4c b9bd 92a0 d03c 5a85 a0bc
000002e0: d11c 48bd 02fb 283c 825d 803d ae64 51be
000002f0: ef67 6c3d 2249 98bd 852f acbd 75cb 2a3e
00000300: 6690 dbbd 1b77 e3bd 2899 44be d890 05be
00000310: 9442 c8bc 7e28 143c e80d c7ba 0b40 0c3e
00000320: c66d f23d 45c8 08bd 99b2 16be a2a7 b73d
00000330: 4f7d 1c3d 0c7c 5e3e 9178 16be 02e3 4c3d
00000340: 625b eb3d 1fa6 1e3d 2824 46be b3cd 4e3e
00000350: 5169 793e c7b4 7abc 4814 2a3d 0193 cf3d
00000360: 074d f93c 67da 0abd 6558 083e 5f0b f3bc
00000370: e1ec b9bd d217 5d3e 0779 2cbd 2f71 41bd
00000380: 4b0b 3cbd eab5 673d 3714 f93b 7a29 06bd
00000390: 59db d1bd d34d afbd e2da 823c d80d f3bd
000003a0: 23a5 9c3d b804 893d f654 eebc 6f20 c2bd
000003b0: 1013 383e f015 46bd 971c db3d 8633 713d
000003c0: d776 e83d 15bf f3bd d258 e53d b4e0 75bc
000003d0: d573 e4bd 59da 993e baba 1c3e 4594 6fbc
000003e0: 2d41 313d ae2b eebd 6eec 353e abc5 09bd
000003f0: 61b9 db3c 1496 233a 2f5d bf3c 9c06 c73d

layer1.linear.weight f4 [34, 784]
-0.0002238248 -0.01627298 0.029349508 -0.009998403 0.011275094 0.015884213 0.018124305 0.029548282
-0.013350233 0.031948794 -0.00068880606 0.027297279 0.015922142 0.040129945 -0.015224678 0.03584233
-0.005956167 -0.014939147 -0.01457815 0.0054912036 0.0044861664 0.028458916 -0.0037933963 0.020582268
0.022820868 0.018256988 -0.0028339156 0.042414512 -0.016089091 -0.008945585 0.015216697 0.023992984
0.034886584 -0.020006606 0.00074822106 -0.0014552026 -0.005132922 -0.009794397 0.011895896 0.0005415815
-0.010449383 -0.012609446 0.048327215 -0.008501172 -0.020508168 -0.021798417 0.007671604 -0.004154065
-0.0126492735 -0.011486903 0.045786634 -0.011547695 0.03261549 0.045337163 0.03484267 0.009582408
0.0058592097 0.036889777 0.048939243 0.029431768 0.017090393 0.012688647 0.028237607 -0.01572835
0.0108418185 0.03992216 -0.010965355 0.004039982 0.004698106 0.008018499 0.037087746 0.058003362
0.050948422 0.035543256 -0.022057103 -0.012590022 0.017980441 0.037543017 -0.0011608166 0.025352083
0.00063099805 -0.017355207 0.0073152976 0.036683988 0.036228124 -0.014112401 -0.020180434 -0.009089528
0.026560277 0.023681004 0.033803135 0.023171784 -0.0069059622 -0.013275758 0.009274331 0.0027566103
0.038040973 0.014717617 0.027961055 -0.017705055 -0.0091078095 0.021320622 0.036522884 0.033777613
-0.043615855 0.003692727 0.028915284 0.018612115 -0.0196812 -0.00769274 0.018045427 0.03371087
-0.0071815187 -0.020317666 0.03518882 0.023039332 0.01976473 -0.0007028089 0.01923483 0.049586806
0.056160238 0.04743463 0.013707943 -0.06884283 -0.026524516 -0.0037912203 0.026035823 0.013411334
0.033874102 -0.036550645 -0.0024153085 -0.03016834 0.03562825 -0.0066699777 -0.01468341 -0.034076758
0.002139806 0.0035247519 0.0028669143 0.0069769067 0.013457859 0.0005802431 -0.011928148 -0.00952629
0.042188276 0.041406922 0.07460455 0.056241874 0.0149000455 0.0273429 -0.045900412 -0.044221666
0.031041019 -0.016061815 0.026595343 0.007016128 0.048168544 -0.066586055 -0.03333974 0.0064861896
0.01871511 0.01853777 -0.013223738 0.06375598 -0.008023848 -0.015148337 0.0027095808 0.026062574
0.0062682037 0.046263054 0.030103762 0.025111405 0.042660374 0.048282437 0.052067205 0.02524093
0.00072214054 0.05670629 0.02702242 0.013299506 -0.009493377 -0.09301538 -0.10892312 -0.073058434
-0.09176649 -0.06780673 -0.08591666 -0.0034637307 0.0031432926 0.009437511 -0.03917014 0.057940535
-0.0037793121 0.001988972 -0.008146525 0.025359245 -0.010194128 0.039978016 0.033795256 0.045667205
0.058581285 0.03174674 0.027708478 0.019417547 0.061160687 0.0059262053 0.033323172 -0.0086411275
-0.05224844 0.00064237876 -0.09033989 -0.093894266 -0.14201982 -0.12735741 -0.0068453136 -0.030903697
-0.011645987 0.050013684 0.027807845 0.00042180467 0.005817602 0.008535927 0.052876696 0.009593894
0.013924251 0.028699972 -0.0010947764 0.017054498 0.114371404 0.04031536 0.014610122 0.10194234
0.022817917 -0.030435767 0.057291884 0.030257978 0.043680783 0.032051805 -0.052658625 -0.12988053
-0.08666901 0.00078797666 -0.009332697 0.02985972 -0.018907351 -0.030417824 -0.033322718 -0.05750103
-0.02367679 -0.017448384 0.04919212 0.032503925 0.04448596 0.022530412 0.018181523 -0.0027066092
00000000: 83b2 6ab9 ea4e 85bc 616e f03c 57d0 23bc
00000010: 2cbb 383c 9c1f 823c 6c79 943c 3d0f f23c
00000020: f0ba 5abc bddc 023d fe90 34ba 8b9e df3c
00000030: 276f 823c 4c5f 243d ee70 79bc 68cf 123d
00000040: f32b c3bb 53c3 74bc 31d9 6ebc 8eef b33b
00000050: b100 933b ac22 e93c a19a 78bb 259c a83c
00000060: d4f2 ba3c ae8f 953c 37b9 39bb d7ba 2d3d
00000070: 45cd 83bc 8190 12bc 744f 793c ef8c c43c
00000080: 3ce5 0e3d e5e4 a3bc 4424 443a 7fbc beba
00000090: 1232 a8bb ae78 20bc 01e7 423c ebf8 0d3a
000000a0: e433 2bbc da97 4ebc c2f2 453d 8048 0bbc
000000b0: bf00 a8bc 9892 b2bc 1462 fb3b d31e 88bb
000000c0: e63e 4fbc 9033 3cbc c48a 3b3d 8b32 3dbc
000000d0: d297 053d 76b3 393d 30b7 0e3d 88ff 1c3c
000000e0: 9dfe bf3b bc19 173d 8474 483d e41a f13c
000000f0: 2701 8c3c 0be4 4f3c 8e52 e73c bed8 80bc
00000100: e2a1 313c 6b85 233d 08a8 33bc d361 843b
00000110: 92f2 993b 0660 033c 52e9 173d ef94 6d3d
00000120: 4baf 503d ce95 113d 19b1 b4bc 6146 4ebc
00000130: b84b 933c b5c6 193d 8b26 98ba 2caf cf3c
00000140: 9069 253a 822c 8ebc 2ab5 ef3b f341 163d
00000150: f163 143d b337 67bc 7051 a5bc 3eec 14bc
00000160: f094 d93c aafe c13c 2875 0a3d c1d2 bd3c
00000170: 694b e2bb 9182 59bc 5df3 173c 3fa8 343b
00000180: dad0 1b3d 2922 713c 950e e53c 310a 91bc
00000190: ec38 15bc 96a8 ae3c 0599 153d 655a 0a3d
000001a0: 8aa6 32bd ae01 723b bfdf ec3c 6f78 983c
000001b0: 783a a1bc 6113 fcbb 01d4 933c 6914 0a3d
000001c0: f252 ebbb 3c71 a6bc 2722 103d fbbc bc3c
000001d0: a5e9 a13c b53c 38ba 5d92 9d3c 891b 4b3d
000001e0: 4708 663d d14a 423d 4897 603c 78fd 8cbd
000001f0: f149 d9bc 1f76 78bb 1449 d53c 36bb 5b3c
00000200: 92bf 0a3d 21b6 15bd 274a 1ebb 9823 f7bc
00000210: eeee 113d d48f dabb af92 70bc 1294 0bbd
00000220: fd3b 0c3b 86ff 663b d7e2 3b3b 899e e43b
00000230: 5a7e 5c3c 751b 183a 476e 43bc 2814 1cbc
00000240: 9dcd 2c3d 4e9a 293d 45ca 983d e15d 663d
00000250: 521f 743c 38fe df3c 1202 3cbd c721 35bd
00000260: bc49 fe3c 1194 83bc 7ade d93c 8ce7 e53b
00000270: 614c 453d 455e 88bd 408f 08bd 1a8a d43b
00000280: 6e50 993c 85dc 973c 61a8 58bc 7f92 823d
00000290: 7576 03bc bb30 78bc 3993 313b 2e81 d53c
000002a0: 8165 cd3b 547e 3d3d 2a9c f63c 6fb6 cd3c
000002b0: a5bc 2e3d cec3 453d 6c44 553d 11c6 ce3c
000002c0: 084e 3d3a db44 683d 1f5e dd3c 2ce6 593c
000002d0: 1c8a 1bbc d97e bebd 1613 dfbd a99f 95bd
000002e0: 12f0 bbbd 41de 8abd 13f5 afbd c2ff 62bb
000002f0: b3ff 4d3b ca9f 1a3c de70 20bd 0e53 6d3d
00000300: 56ae 77bb 6a59 023b 0179 05bc 31be cf3c
00000310: 4605 27bc fdbf 233d e56c 0a3d 890d 3b3d
00000320: eef2 6f3d df08 023d e4fc e23c 8c11 9f3c
00000330: a183 7a3d 9d30 c23b e17d 083d 8493 0dbc
00000340: 7602 56bd 4f65 283a 1f04 b9bd a34b c0bd
00000350: a56d 11be fb69 02be a74e e0bb c029 fdbc
00000360: cfce 3ebc 26db 4c3d 47cd e33c aa25 dd39
00000370: 95a1 be3b 46da 0b3c 3c95 583d b52f 1d3c
00000380: 8b22 643c 341c eb3c 9a7e 8fba e0b5 8b3c
00000390: 8e3b ea3d b821 253d 4b5f 6f3c 25c7 d03d
000003a0: a4ec ba3c 6e54 f9bc e5aa 6a3d 94df f73c
000003b0: 9fea 323d c148 033d 92b0 57bd 67ff 04be
000003c0: 867f b1bd 3890 4e3a 2be8 18bc 5f9c f43c
000003d0: 97e3 9abc cd2e f9bc 677d 08bd 3386 6bbd
000003e0: d4f5 c1bc eaef 8ebc ad7d 493d d622 053d
000003f0: e936 363d b391 b83c 6bf1 943c 5e61 31bb

layer1.linear.bias f4 [34]
-0.04158847 0.014335819 0.021157954 0.014044867 -0.004174 0.012230635 0.006901361 0.036820702
0.024714964 0.03397347 0.02534505 0.016937384 0.007316694 -0.041196443 0.01781307 -0.0415298
-0.022291044 -0.016406164 -0.020432577 0.004801205 -0.013995387 0.03564607 -0.03252348 -3.268689e-05
0.02112894 -0.0034715403 0.002331322 0.021453338 -0.0013234023 -0.010043416 -0.0024037021 -0.0065139043
0.012248469 -0.0039603272
00000000: ac58 2abd c8e0 6a3c 7253 ad3c 711c 663c
00000010: 0dc6 88bb 0063 483c d024 e23b 4ed1 163d
00000020: 0977 ca3c c427 0b3d 6ca0 cf3c 45c0 8a3c
00000030: e1c0 ef3b 9abd 28bd b7ec 913c 271b 2abd
00000040: b59b b6bc 3866 86bc 3862 a7bc 6d53 9d3b
00000050: e84c 65bc 9d01 123d 5737 05bd 4819 09b8
00000060: 9916 ad3c c882 63bb 18c9 183b e9be af3c
00000070: 0376 adba 248d 24bc 6e87 1dbb 9772 d5bb
00000080: cdad 483c a2c5 81bb

layer2.grid_points f4 [3]
-0.9459372 0.029474868 1.0374427
00000000: f128 72bf 4775 f13c ecca 843f

layer2.spline_weight f4 [10, 34, 3]
-0.07274489 -0.15215746 -0.2796246 -0.13170718 -0.12447279 -0.13106634 -0.33430696 -0.3762994
-0.37342343 0.073460996 -0.035089463 0.009366133 -0.005944168 -0.019678282 0.040656496 0.13222317
0.21373864 0.17878817 -0.06972028 -0.040120415 0.20691283 -0.055476036 -0.107279934 0.0018422881
-0.07478684 -0.06255243 0.0145368865 0.10912331 0.024548784 0.06452786 -0.05212427 -0.13977806
-0.24655414 0.1462009 -0.026226614 0.009665802 -0.031035565 -0.1611232 -0.10698471 -0.23373015
-0.4165791 -0.50879776 -0.11444414 -0.08118892 -0.08641076 -0.21110332 -0.18061712 -0.099507414
-0.093594305 -0.06513246 -0.14152811 -0.0113777695 -0.063054025 0.10117671 0.17068307 0.0022892873
0.0107992785 -0.014098647 -0.14852728 0.089310594 -0.06325473 -0.033715513 -0.026740361 -0.051510565
-0.110712215 0.043889046 0.112887554 0.002089875 -0.062371854 0.07038612 0.06849048 0.023503454
-0.30578303 -0.39023513 -0.23651731 -0.25289413 -0.12629105 -0.08462172 0.067823306 0.055723842
0.05108588 0.05311849 0.0073346277 -0.15267164 0.053190153 -0.27588472 -0.2917779 -0.036250193
-0.07104325 0.041537296 -0.21371639 -0.008228047 0.06644826 0.3702033 0.10395332 0.08345229
-0.18220893 -0.12850782 -0.05331025 -0.048551876 -0.009184751 -0.053113505 0.19187449 0.12317808
-0.005248854 0.1261716 0.2451223 0.081497304 -0.16491878 -0.06624851 0.0075066546 -0.15478015
-0.21285729 -0.13655469 0.006134537 0.13082333 -0.02857423 -0.0856799 -0.33147675 -0.14702392
0.074064605 0.47423723 0.34997883 0.1760356 -0.046634153 -0.060689908 0.13485292 -0.01845097
0.004852035 0.08733594 -0.0024542871 0.061128657 -0.15427725 0.0010975885 0.11973636 -0.00026613023
-0.14360082 0.057085693 0.067422226 -0.12282297 -0.073397055 0.118998356 -0.09485189 -0.3114904
-0.093659595 -0.07106569 -0.087756805 0.11269436 0.07347969 -0.07612213 0.121641494 -0.016654057
0.08707581 -0.27451807 -0.40976956 -0.36924142 -0.53547907 -0.20151721 0.20217428 -0.19767441
-0.22465825 -0.04131117 -0.035674207 0.06387434 0.036613513 -0.1407302 0.053674024 0.063097104
-0.13816561 -0.059988454 -0.20368077 -0.10049517 -0.14532273 -0.16499989 -0.04528699 -0.05681482
0.19425428 0.08889595 -0.5652573 -0.5369844 -0.085684635 0.06566519 0.2245606 -0.0026003092
-0.09332605 0.02592823 0.010007206 0.12053924 0.08351436 -0.034254353 -0.13797809 -0.22877742
-0.017847637 -0.268795 -0.1343865 -0.100944564 0.13787921 0.043638896 -0.4851723 -0.45222217
-0.20269464 -0.098594464 -0.09907721 -0.012157694 0.16903137 0.074654445 0.14799866 -0.08178691
-0.04623611 -0.09285282 -0.040975027 0.024536496 -0.016511256 0.19362544 0.15102899 0.18472435
0.012946178 0.028822437 -0.027495181 0.1307638 0.13918905 0.2061135 -0.7090929 -0.59169847
-0.7104687 0.12817222 -0.11313792 0.15169708 -0.15998445 -0.11118176 -0.1395515 0.07939035
-0.085057594 -0.10731275 0.20584297 0.20148464 0.4590198 -0.34867173 -0.3359738 -0.16632375
-0.1701754 0.056940794 0.11026826 0.25021097 0.3631551 0.44356093 0.059989966 0.11313315
0.059477285 0.05398578 0.09180796 0.31061354 0.033632703 0.003460809 -0.023669431 0.3847138
00000000: 46fb 94bd 2acf 1bbe f52a 8fbe 3fde 06be
00000010: 97eb febd 4136 06be 482a abbe 51aa c0be
00000020: 5b31 bfbe b872 963d f8b9 0fbd 6974 193c
00000030: 4cc7 c2bb 5934 a1bc 6d87 263d 8365 073e
00000040: 4dde 5a3e 3f14 373e 82c9 8ebd 4e55 24bd
00000050: f5e0 533e d73a 63bd 95b5 dbbd ee78 f13a
00000060: d829 99bd 7d1b 80bd 1f2c 6e3c 0b7c df3d
00000070: 881a c93c 2f27 843d 4280 55bd fb21 0fbe
00000080: b078 7cbe b0b5 153e 32d9 d6bc 505d 1e3c
00000090: 4c3e febc 7bfd 24be cd1a dbbd f556 6fbe
000000a0: db49 d5be 9240 02bf b061 eabd 6046 a6bd
000000b0: 20f8 b0bd 782b 58be b2f3 38be 8bca cbbd
000000c0: 5fae bfbd 2b64 85bd bfec 10be d369 3abc
000000d0: 7822 81bd bc35 cf3d 8bc7 2e3e de07 163b
000000e0: 75ef 303c 03fe 66bc 8917 18be 79e8 b63d
000000f0: b28b 81bd 4719 0abd 9a0e dbbc befc 52bd
00000100: 16bd e2bd 00c5 333d 9731 e73d 49f6 083b
00000110: a179 7fbd 9926 903d bd44 8c3d 518a c03c
00000120: 988f 9cbe e6cc c7be 9831 72be 577b 81be
00000130: 7152 01be 274e adbd f2e6 8a3d af3e 643d
00000140: 6d3f 513d c692 593d 5157 f03b f455 1cbe
00000150: ebdd 593d c340 8dbe ea63 95be 157b 14bd
00000160: 207f 91bd 0323 2a3d 78d8 5abe eece 06bc
00000170: 0616 883d 498b bd3e 7ae5 d43d 09e9 aa3d
00000180: fa94 3abe 8e97 03be d95b 5abd 55de 46bd
00000190: a37b 16bc 8c8d 59bd bf7a 443e ca44 fc3d
000001a0: 94fe abbb 2133 013e 5701 7b3e 0fe8 a63d
000001b0: 78e0 28be 4cad 87bd 62fa f53b b07e 1ebe
000001c0: 43f7 59be fed4 0bbe 3a04 c93b 8df6 053e
000001d0: 8114 eabc f278 afbd 52b7 a9be 708d 16be
000001e0: 2faf 973d 39cf f23e 6d30 b33e ad42 343e
000001f0: 7403 3fbd fb95 78bd e216 0a3e 7d26 97bc
00000200: d2fd 9e3b 2fdd b23d 1bd8 20bb 0b62 7a3d
00000210: dbfa 1dbe f5dc 8f3a 5638 f53d 6587 8bb9
00000220: 180c 13be b0d2 693d aa14 8a3d 9c8a fbbd
00000230: 3251 96bd 69b5 f33d b541 c2bd ab7b 9fbe
00000240: 9ad0 bfbd e38a 91bd d7b9 b3bd 4dcc e63d
00000250: 857c 963d ebe5 9bbd 2d1f f93d 176e 88bc
00000260: cd54 b23d a28d 8cbe 51cd d1be 360d bdbe
00000270: 2815 09bf 875a 4ebe c606 4f3e 296b 4abe
00000280: d00c 66be e735 29bd 1e1f 12bd 8dd0 823d
00000290: 0df8 153d 941b 10be 4bd9 5b3d 0e39 813d
000002a0: 497b 0dbe 74b6 75bd b191 50be 69d0 cdbd
000002b0: 7bcf 14be bbf5 28be da7e 39bd a8b6 68bd
000002c0: 98ea 463e 140f b63d b4b4 10bf cf77 09bf
000002d0: 6d7b afbd 797b 863d 37f3 653e f369 2abb
000002e0: ba21 bfbd 7067 d43c 44f5 233c 47dd f63d
000002f0: 9409 ab3d 4b4e 0cbd 214a 0dbe a144 6abe
00000300: 3535 92bc 809f 89be 9d9c 09be 06bc cebd
00000310: 3530 0d3e b3be 323d 8168 f8be aa89 e7be
00000320: 2f8f 4fbe e5eb c9bd fee8 cabd 1131 47bc
00000330: 8f16 2d3e 6ee4 983d f68c 173e e57f a7bd
00000340: 1362 3dbd 9f29 bebd 6ed5 27bd c300 c93c
00000350: 9d42 87bc bf45 463e 58a7 1a3e 6128 3d3e
00000360: 351c 543c 081d ec3c 933d e1bc f2e6 053e
00000370: 9387 0e3e 6b0f 533e 1d87 35bf 8d79 17bf
00000380: 47e1 35bf 943f 033e dbb4 e7bd 7b56 1b3e
00000390: f7d2 23be 43b3 e3bd 97e6 0ebe 6897 a23d
000003a0: ad32 aebd c9c6 dbbd 80c8 523e fd51 4e3e
000003b0: a504 eb3e 1a85 b2be c204 acbe c650 2abe
000003c0: 7642 2ebe c03a 693d 53d4 e13d a71b 803e
000003d0: 77ef b93e 6b1a e33e 0ab8 753d 5ab2 e73d
000003e0: 749e 733d 3120 5d3d d005 bc3d bd08 9f3e
000003f0: 72c2 093d bdce 623b 65e6 c1bc 35f9 c43e

layer2.linear.weight f4 [10, 34]
-0.19502074 -0.17929052 -0.26289663 0.068848886 0.14849238 -0.06159968 -0.118927725 -0.13731942
-0.05838186 0.18720575 -0.18640634 0.01768447 -0.12810704 0.08837025 -0.19271426 -0.06355803
-0.020042432 0.20081624 -0.057476934 -0.0726093 0.0367107 0.13109986 -0.11773882 0.022532087
0.045835253 -0.031149957 -0.16626452 0.17697442 0.1446569 -0.029720422 0.052298337 0.010468243
-0.15200181 -0.018953905 0.11991952 -0.23561257 -0.02276311 -0.30038297 -0.06277911 -0.06375706
0.039025836 0.27254307 0.021472005 -0.036200657 0.111471966 0.24913436 -0.102818646 -0.12463198
0.0722371 -0.2696201 -0.08616417 -0.06687389 0.41009346 -0.0897959 0.100395635 -0.09630293
-0.13886659 -0.3059484 0.019037288 0.031236405 0.04555477 0.0588145 -0.091043055 -0.15613146
0.22061336 -0.175388 -0.0318612 0.19238359 0.16354792 0.044242777 0.030474711 0.1574485
0.038954113 0.18214813 0.1599381 -0.023915177 -0.18464226 -0.118027695 0.02402795 0.038281154
-0.123901576 -0.16245249 -0.07495359 0.02304289 0.09345631 0.026024032 0.073076874 -0.19737858
0.1875089 -0.0188652 -0.14078504 -0.059864435 -0.10561227 0.08046204 -0.0051485803 -0.19418724
0.010707777 -0.17783971 0.07227448 -0.00742929 -0.056749478 0.024801265 0.043704804 0.16257006
0.03132639 0.1449741 -0.169952 -0.10438214 0.11530217 0.051687412 -0.13039932 0.15888439
0.042612325 -0.11040647 -0.10124387 0.14938687 -0.17229421 -0.001960006 -0.09845143 -0.06014305
0.084597476 -0.01165446 0.06066292 -0.08687932 0.13151771 -0.11004701 -0.055773072 0.005447387
0.037039675 -0.172896 -0.08042317 -0.18058002 -0.07445599 -0.15757513 0.14268121 0.033260442
0.09900381 0.06603991 0.024581965 -0.15461557 -0.08920587 0.0025396538 0.0882243 -0.03516024
0.051111 -0.14419691 0.11725894 -0.170779 0.22102714 -0.0016034232 0.13901794 -0.17246215
0.15905927 -0.04688769 -0.0940721 -0.029625934 -0.14833309 -0.009697813 0.08992153 -0.023524571
0.13186562 -0.16996941 0.053985745 0.03046425 -0.029353924 0.18298225 0.010506977 0.25048408
-0.053306483 0.13360485 -0.14902635 -0.020926977 -0.18108654 0.01672909 -0.15132979 0.19816653
0.08179311 0.06690647 -0.013298185 0.23970953 0.13019079 -0.07124691 -0.17782734 -0.14996988
-0.08137443 0.11530622 0.049716156 -0.057517886 0.038300592 0.2001637 -0.11063376 0.1273984
0.21226294 -0.119015515 -0.041000586 0.084490605 0.15233503 0.049642827 -0.03676592 0.023886187
0.05432965 -0.1815766 -0.109889664 0.09775195 0.09576474 -0.16302793 0.11585226 0.25991225
0.07025726 0.28712845 -0.09462942 0.08256122 0.17893216 -0.012718757 0.21200283 -0.012638707
-0.1881033 -0.11720124 0.100661464 -0.043390285 -0.20684381 -0.12002942 0.0015277631 -0.21107738
0.0817802 -0.003940027 0.049126443 0.21067135 0.025366373 -0.21361431 0.00034951692 0.13488305
-0.1439114 0.08130378 0.101729795 0.17099921 -0.17687672 -0.09342763 0.121900596 -0.19218045
-0.07437992 -0.26275292 -0.16620415 -0.11804397 -0.2043653 0.11691186 0.07780178 0.056505065
-0.04959946 -0.23529792 0.0058451877 -0.09797386 -0.21032175 0.059121385 -0.021317583 0.20973018
00000000: 84b3 47be ef97 37be 639a 86be a500 8d3d
00000010: 630e 183e f24f 7cbd 6190 f3bd 769d 0cbe
00000020: d121 6fbd ddb2 3f3e 4ee1 3ebe 06df 903c
00000030: 7e2e 03be 76fb b43d e356 45be b62a 82bd
00000040: 0730 a4bc c6a2 4d3e ef6c 6bbd 2fb4 94bd
00000050: f55d 163d 0b3f 063e 0d21 f1bd 3695 b83c
00000060: bfbd 3b3d 322e ffbc 3f41 2abe c838 353e
00000070: f020 143e 3e78 f3bc c836 563d fe82 2b3c
00000080: 5da6 1bbe 3845 9bbc 5e98 f53d 6c44 71be
00000090: b479 babc cccb 99be 5692 80bd 1093 82bd
000000a0: 8ed9 1f3d c48a 8b3e 0fe6 af3c 2447 14bd
000000b0: 6a4b e43d 141d 7f3e 9592 d2bd 0d3f ffbd
000000c0: 0bf1 933d a50b 8abe d776 b0bd 2ef5 88bd
000000d0: c5f7 d13e eae6 b7bd 3a9c cd3d 783a c5bd
000000e0: 0b33 0ebe 45a5 9cbe 16f4 9b3c 7de3 ff3c
000000f0: a397 3a3d 79e7 703d c874 babd ede0 1fbe
00000100: 78e8 613e e998 33be e480 02bd 3400 453e
00000110: 1b79 273e ea37 353d 1aa6 f93c 2e3a 213e
00000120: 598e 1f3d 0a85 3a3e d0c6 233e c3e9 c3bc
00000130: dc12 3dbe 81b8 f1bd 43d6 c43c b3cc 1c3d
00000140: 1cc0 fdbd f259 26be 4581 99bd 71c4 bc3c
00000150: 0666 bf3d 5a30 d53c 54a9 953d 9c1d 4abe
00000160: 5502 403e 318b 9abc f429 10be 6934 75bd
00000170: 3f4b d8bd 48c9 a43d 6cb5 a8bb 05d9 46be
00000180: ac6f 2f3c 9d1b 36be a404 943d 6771 f3bb
00000190: 2472 68bd 062c cb3c cf03 333d c478 263e
000001a0: 1a50 003d 1774 143e e607 2ebe 4ec6 d5bd
000001b0: 8b23 ec3d 2eb6 533d 6687 05be 97b2 223e
000001c0: 438a 2e3d ca1c e2bd f258 cfbd dff8 183e
000001d0: e56d 30be 7273 00bb e7a0 c9bd 8f58 76bd
000001e0: 7141 ad3d 59f2 3ebc af79 783d c9ed b1bd
000001f0: 94ac 063e 5460 e1bd 4e72 64bd ff7f b23b
00000200: eab6 173d a60b 31be e7b4 a4bd f8e9 38be
00000210: 627c 98bd 605b 21be 061b 123e 1a3c 083d
00000220: 82c2 ca3d ef3f 873d 1e60 c93c 8b53 1ebe
00000230: 91b1 b6bd 5270 263b f1ae b43d 2f04 10bd
00000240: c559 513d 5ba8 13be 7525 f03d b1e0 2ebe
00000250: f054 623e f429 d2ba b85a 0e3e eb99 30be
00000260: 6fe0 223e 4e0d 40bd e0a8 c0bd 16b2 f2bc
00000270: a1e4 17be 93e3 1ebc c728 b83d 9ab6 c0bc
00000280: c807 073e 760c 2ebe 2820 5d3d 2a90 f93c
00000290: a477 f0bc b35f 3b3e 7525 2c3c 733f 803e
000002a0: e657 5abd b6cf 083e 5d9a 18be 0d6f abbc
000002b0: c06e 39be 720b 893c 32f6 1abe 2bec 4a3e
000002c0: 2583 a73d 4206 893d a1e0 59bc 6a76 753e
000002d0: bc50 053e e6e9 91bd 5f18 36be b491 19be
000002e0: a3a7 a6bd ab25 ec3d 2ba3 4b3d e097 6bbd
000002f0: 15e1 1c3d b7f7 4c3e f493 e2bd ba74 023e
00000300: 755b 593e 68be f3bd 3bf0 27bd 6909 ad3d
00000310: b7fd 1b3e 4756 4b3d dd97 16bd f7ac c33c
00000320: c488 5e3d 37ef 39be d50d e1bd 2d32 c83d
00000330: 4e20 c43d cbf0 26be f343 ed3d 3813 853e
00000340: 0ae3 8f3d 8002 933e 12cd c1bd db15 a93d
00000350: fe39 373e 5562 50bc 4517 593e 9412 4fbc
00000360: 279e 40be 3407 f0bd 9927 ce3d 03ba 31bd
00000370: ddce 53be fcd1 f5bd 393f c83a ab24 58be
00000380: 617c a73d 581b 81bb cf38 493d 3bba 573e
00000390: 24cd cf3c b6bd 5abe 5e3f b739 c81e 0a3e
000003a0: 835d 13be 9982 a63d b657 d03d 6b1a 2f3e
000003b0: 2c1f 35be fc56 bfbd 05a7 f93d f4ca 44be
000003c0: 8054 98bd 8d87 86be 6c31 2abe 09c1 f1bd
000003d0: 2345 51be 7c6f ef3d 8a56 9f3d db71 673d
000003e0: ce28 4bbd f0f1 70be fd88 bf3b 85a6 c8bd
000003f0: 965e 57be 4429 723d 36a2 aebc 82c3 563e

layer2.linear.bias f4 [10]
-0.01630256 -0.03605323 0.01988723 -0.031251386 0.03824891 -0.071521886 -0.17857812 -0.052703176
-0.07540929 0.18948603
00000000: f28c 85bc 8dac 13bd 8bea a23c 7401 00bd
00000010: e4aa 1c3d 117a 92bd 2fdd 36be 49df 57bd
00000020: 3070 9abd a008 423e
