saved_models/FastKAN_FashionMNIST_checkpoint.pth (torch, 436893 bytes, 8 tensors)

layer1.grid_points f4 [3]
000000 d5 42 c3 bf ff 34 51 be d5 9e a1 3f
       -1.525477 -0.20430373 1.2626597

layer1.spline_weight f4 [34, 784, 3]
000000 4f 74 08 3e 11 1e c7 bc fc 65 44 3d 4e b6 e2 3d
       0.13325618 -0.024306329 0.047948822 0.11069928
000010 28 f2 71 be 96 42 e6 bb 60 38 d7 3d a4 9c 80 bc
       -0.23627532 -0.0070269806 0.105087996 -0.015699692
000020 2e 48 82 3e 82 6a f7 3c ba eb 39 bd 97 0b 1d 3e
       0.25445694 0.030202154 -0.045390822 0.15336452
000030 18 91 a1 3d c8 31 c4 bd 29 e3 2c be cb 6e 4b be
       0.078890026 -0.095798075 -0.1688353 -0.19866483
000040 fb b2 56 be 6b 8c 7d 3d 2a ba ec bd 00 bb 40 be
       -0.20966713 0.06190149 -0.115589455 -0.18821335
000050 46 5b 59 be cf 6c 63 bd ee 81 8c be 31 ec 22 be
       -0.21226224 -0.05552369 -0.27442878 -0.15910412
000060 fb 79 ac bd 7e 2d c5 bb 32 cb b8 bc 48 45 48 be
       -0.084217034 -0.006017386 -0.022557829 -0.19557679
000070 00 7f 24 3c c8 47 13 be 5a 59 c8 bd 7b ba 1b 3e
       0.010040045 -0.14382851 -0.097826675 0.15207855
000080 93 30 25 3e 42 ec 28 3e f8 3b c7 bd 97 c1 26 3e
       0.16131811 0.16496375 -0.09728235 0.16284786
000090 2b 9f 29 be ac 8f bd 3c 03 a0 80 bc eb a5 f0 3d
       -0.16564624 0.023139797 -0.0157013 0.11750396
0000a0 ec f7 c6 be e7 97 73 be 87 d0 1f 3e 3c 23 74 be
       -0.38861024 -0.23788415 0.1560689 -0.23841566
0000b0 9d a9 ac bd 3d 8e fe 3d ee 1c 2d be a7 cf 19 3e
       -0.08430789 0.124294735 -0.16905567 0.1502062
0000c0 4e 77 da 3d 3b 99 cb bc 09 67 24 bd 39 8c d7 3c
       0.10667287 -0.02485334 -0.040137324 0.02631198
0000d0 dc 0b b5 bd 82 88 0a 3c a9 da aa bd 56 c9 56 bd
       -0.088401526 0.008455398 -0.08342487 -0.052438103
0000e0 f2 c2 cb 3d c7 7e 00 3d b9 1a bd bd 97 c0 45 3e
       0.09949292 0.031370904 -0.092336126 0.19311748
0000f0 3f a4 11 bd 75 c1 29 bd dd 8b 20 be 32 30 01 3d
       -0.035557028 -0.04144426 -0.15678354 0.031540103
000100 a2 2c 74 be c0 32 1f be 4b e7 47 3b b5 35 1b be
       -0.23845151 -0.15546703 0.0030502852 -0.15157206
000110 7a 51 65 be 6d 48 04 be 69 8e 39 bd cc a5 71 3c
       -0.22394362 -0.12918253 -0.04530183 0.014749002
000120 ce 78 96 bd b6 a0 3b be 01 ea 21 3c 6f 32 05 be
       -0.073472604 -0.18323025 0.009882451 -0.1300752
000130 77 9b 9d 3d df 74 2c 3e 88 65 8d bd 1b d1 97 3c
       0.07695668 0.16841458 -0.06904131 0.018532326
000140 19 5e 0b be a9 dc 88 bc c0 93 e9 3d 94 66 90 3d
       -0.13610114 -0.016706781 0.11405134 0.07050815
000150 20 29 6b 3e c5 fd 1c 3d 05 63 32 be 6b e8 96 3d
       0.22964907 0.03832795 -0.17420585 0.07368549
000160 5b 02 f7 bd da 96 76 3c bd 09 60 bd b3 70 41 3d
       -0.12060996 0.015050614 -0.054696787 0.04722662
000170 73 a8 9a 3e cf c1 72 3c 8f 01 dc 3d c7 6b 0b 3e
       0.30206642 0.014816715 0.10742485 0.13615333
000180 cc 36 e7 3d a6 b6 e8 3d 2d db d6 bc 29 d6 59 3e
       0.112897485 0.113629624 -0.026227558 0.21273102
000190 a6 fa 14 bd 62 81 e8 bc cf 13 95 bd 11 7a 84 bd
       -0.03637185 -0.028382007 -0.07279169 -0.06468595
0001a0 38 f4 c8 bd ab 1d 12 3e 99 9a 89 bc 7b 52 f5 bd
       -0.09812206 0.1426913 -0.01679735 -0.119786225
0001b0 5e 70 bf 3d 84 7d fb 3d 7d 51 ca bd 35 3d 75 3d
       0.09347604 0.122797996 -0.09878824 0.059872825
0001c0 70 c2 50 be bb 68 dc bd 69 ac 90 bd 81 ef 2f 3d
       -0.20386672 -0.10762163 -0.07064135 0.042953018
0001d0 7a b9 cc bd f2 6d 1b 3e 3d 23 db 3a a2 43 ee 3d
       -0.09996314 0.1517866 0.0016718876 0.11633994
0001e0 ce a9 89 bd 4d 5b b6 be 08 8a e2 3d 11 c7 4e 3e
       -0.06721841 -0.35616532 0.110614836 0.20193125
0001f0 b1 38 54 be 8b 42 6a 3c c8 97 25 3e 78 f0 40 be
       -0.20724751 0.014298092 0.16171181 -0.18841732
000200 79 bd 03 be f9 ce 94 3d e6 84 38 be 07 75 f0 3d
       -0.12865247 0.072660394 -0.18019447 0.11741071
000210 37 66 f9 3c 5e 72 ec bd 55 e2 6f 3c 8d 67 3d 3e
       0.030444248 -0.11545251 0.014641364 0.18496533
000220 63 07 20 bd 9c 23 11 be 60 7a 03 3d d9 5d 50 bd
       -0.039069545 -0.1417374 0.032099128 -0.05087075
000230 25 f9 9f b9 9f 8f b3 3d 7e 45 a2 bc db e7 86 bc
       -0.0003051247 0.08767628 -0.019808527 -0.01646798
000240 6f 7f 33 bd a8 c7 41 3d 28 56 b6 3d 69 0b 2b be
       -0.043822702 0.047309548 0.08903152 -0.16703571
000250 01 fa 9f 3d 88 5e 96 bd d0 70 fc 3d 1f 35 8d bb
       0.07811356 -0.07342249 0.12326205 -0.004309311
000260 f6 e8 c4 bd 23 1c 99 bd 21 3e b4 3d 58 ba 0b be
       -0.09614746 -0.0747607 0.08800913 -0.13645303
000270 fc c0 05 3e ed 5c 78 3d bd 2d 5e bc 5c ca e8 3c
       0.13061899 0.060635496 -0.01356071 0.028416805
000280 27 78 d1 bd e2 5f f4 3d 5b 06 11 bd 92 3a 10 3d
       -0.10227995 0.11932351 -0.03540645 0.035212107
000290 84 ed 16 be 38 3d 84 3d 2e 7d f2 bd 88 9a 8b 3e
       -0.14739043 0.06456989 -0.118402824 0.27266335
0002a0 f9 78 9a bd 5b 2b fe 3d d2 fc 95 be 43 0a 8d 3d
       -0.07542605 0.12410613 -0.2929445 0.06886723
0002b0 c1 05 33 bd 75 ce a3 bd e5 d8 8a bd 43 a5 85 ba
       -0.04370666 -0.07998363 -0.067796506 -0.0010196347
0002c0 0d 53 f9 bd 8f ba 0b 3e 95 62 bf bd 35 d8 d7 3e
       -0.12174044 0.13645385 -0.09344975 0.4215714
0002d0 18 4f 4e 3d d0 e6 29 bd c9 9c 8b 3e a6 5f be bd
       0.0503684 -0.041479886 0.27268055 -0.09295587
0002e0 e7 e5 18 3d fb 17 9f 3e 27 c2 52 be 8f 07 ac 3d
       0.037328627 0.31072983 -0.20581876 0.08399879
0002f0 fd b2 0e bd 63 96 2e bd b6 9c 83 bd 15 c5 06 bd
       -0.034838665 -0.04262389 -0.064263746 -0.032902796
000300 65 77 b6 bd 84 26 f2 3d 54 51 d1 3d b6 62 6f 3d
       -0.089094914 0.118237525 0.1022059 0.058443747
000310 d6 d0 fe 3d 94 11 bb bd a1 b7 4d 3e 54 60 7f bd
       0.12442176 -0.09134212 0.2008958 -0.062347725
000320 f6 67 72 3d 8e 85 24 3d 2e d2 e7 bd a6 08 ba bd
       0.059181176 0.04016643 -0.113193855 -0.09083681
000330 d3 b8 f0 3b 32 37 9e 3c 6e 04 44 3e 44 c7 88 3d
       0.0073462515 0.019313429 0.19142315 0.06678632
000340 0c 0c 05 3d 39 5f eb bd 55 18 bd 3d 7c 19 0a be
       0.032482192 -0.11492772 0.092331566 -0.13486284
000350 76 42 07 3e f0 0d 07 3e 92 48 ae 3d d9 d4 03 3d
       0.13208947 0.1318891 0.085099354 0.03218541
000360 2a 8b aa 3d 01 29 0c bc d4 8d a0 bd 65 89 f8 bc
       0.08327325 -0.008554698 -0.078395516 -0.030338952
000370 4d 2b 33 3d b3 e3 7a 3d fc 37 c8 bd 3f 31 51 bd
       0.043742467 0.061252307 -0.09776303 -0.051072355
000380 08 2d 2a bc 07 3d 69 be f6 3b 52 bc 5e 12 26 be
       -0.010386713 -0.22777186 -0.012831679 -0.16217944
000390 68 96 01 be fd 90 b4 3d 25 28 b7 bd 6b 29 2a 3e
       -0.12655032 0.08816717 -0.08943204 0.16617362
0003a0 41 d2 6b 3e 0f 04 08 3e dc d5 9c bd e4 5c b7 3d
       0.23029424 0.13282798 -0.07657978 0.08953264
0003b0 30 42 b8 3d 62 ed 64 be b4 b8 ef 3d d3 09 02 3e
       0.08996999 -0.2235618 0.11705151 0.1269906
0003c0 5e 84 74 bd 47 dd 17 be 83 3e cb 3e 50 fb 8d bd
       -0.059696548 -0.14830504 0.3969613 -0.069327
0003d0 a7 c0 1a be 0d 1d 3c bd 07 2d e6 bd 7b 3c 58 be
       -0.15112554 -0.045926142 -0.11239057 -0.21116821
0003e0 44 63 8e bd 1c 49 ad 3d 71 00 1d 3d 84 4a 0e 3e
       -0.06952527 0.0846121 0.0383305 0.13895613
0003f0 23 fe 53 3e a3 fa 0d 3d 23 71 df bd f6 56 69 3d
       0.20702414 0.034662854 -0.10910251 0.056967698

layer1.linear.weight f4 [34, 784]
000000 ad 53 0c 3d 49 84 00 3d b0 f2 d4 3c 6e 07 25 3c
       0.034259487 0.031376157 0.025994629 0.010072572
000010 ab d9 38 bb 62 1c 24 3d 5b 0e 86 3c 24 f5 3f 3a
       -0.0028205912 0.04006613 0.016364267 0.00073226006
000020 9b e0 7a ba 63 5f 09 3d b3 33 15 3b 75 9f 22 39
       -0.0009570212 0.033538233 0.002276641 0.00015508926
000030 4b 4c 95 3d 46 33 e5 bd 31 d3 dd bd e5 32 52 bd
       0.07289942 -0.1119142 -0.10831297 -0.051318068
000040 fa 55 10 3c f0 41 87 3c 40 b5 ac 3d c9 5c 21 3c
       0.008809561 0.016510934 0.08433008 0.009848782
000050 0f 44 b4 bc fe 5b e6 bc 60 52 0d bd bb ff 8b 3c
       -0.02200511 -0.028120037 -0.034502387 0.017089715
000060 88 91 ff 3c 72 02 4d 3d 39 54 8b 3a 99 a0 c2 3c
       0.031197324 0.05005116 0.0010629959 0.02375822
000070 f2 27 9a 3c 37 2d 8f 3b 5e eb 3b 3d 1e 76 31 3d
       0.018817876 0.0043694037 0.04587876 0.043325536
000080 ac 1d 32 3d 8f 3b dc bc 21 c9 a6 bc 6f b7 25 bc
       0.04348533 -0.026883869 -0.020359578 -0.010114535
000090 e7 2e dc 3c 8a 90 d6 bd bd 5e 9e bd 54 93 60 bc
       0.026877834 -0.104767874 -0.07732914 -0.013707001
0000a0 95 d4 4e 3c a4 b1 25 bd 61 6d c1 bd c4 2b 0d 3d
       0.012623926 -0.040452614 -0.094446905 0.034465566
0000b0 6b 3f 32 bd 49 b4 bc bd a2 10 91 bd c9 5e 88 bc
       -0.04351751 -0.09214074 -0.070832506 -0.01664676
0000c0 13 5b 8a 3d d1 e9 99 bc 5f 05 43 3c 09 56 f7 3c
       0.06755652 -0.01878825 0.011903136 0.030192392
0000d0 0a 7d 0d bb ba 64 d1 3b f8 51 08 3b 29 85 cf 3c
       -0.0021589422 0.0063901814 0.002080081 0.02533205
0000e0 14 3f 68 3c b1 01 b1 bc 7f 63 35 3c 5c a6 21 3d
       0.014175195 -0.021607252 0.011071085 0.039465293
0000f0 b0 8b 4c 3b f5 31 36 3d 04 33 de bb 11 43 af 3c
       0.003121119 0.044481236 -0.006780984 0.021394284
000100 09 45 44 bc 50 62 62 bd ff f0 c4 bb d3 36 22 3d
       -0.01197935 -0.05526954 -0.0060101743 0.039603066
000110 28 4e ef 3c 50 8d 45 3d f2 3a 40 3d 72 8c 03 bc
       0.029212072 0.04823047 0.046931215 -0.00802909
000120 29 98 e1 bc b7 28 d0 3c 37 f0 c7 bc fa 82 06 3c
       -0.027538376 0.02541004 -0.024406536 0.008209938
000130 54 6a 2f 3d 62 da e7 3c de b2 5b 3d 22 ed 90 3d
       0.04282601 0.028302375 0.053637378 0.070764795
000140 98 1c 5c 3d d0 96 8d 3b 40 d7 81 bc b2 3b c0 bc
       0.053738207 0.0043209568 -0.01584971 -0.023465965
000150 dd e5 2c 3c 30 d8 bd bc 20 ae 10 3d 4e d2 1f bc
       0.010552851 -0.023174375 0.03532231 -0.00975473
000160 7f 93 c9 bc b3 1f ac 3c ad 3b 5a 3b c2 31 5a 3d
       -0.024606464 0.02101121 0.003329973 0.05327011
000170 a9 0a 3a 3d 27 c7 41 3c c4 87 83 bd 3f 85 d1 bc
       0.045420323 0.011827267 -0.064223796 -0.025576232
000180 39 4a 84 bb 37 68 a3 bc bd 62 86 bd 7f da 13 bd
       -0.0040371683 -0.019947154 -0.065618016 -0.036097046
000190 e9 23 d3 3c c8 01 72 39 b8 97 d7 ba e3 61 73 3d
       0.02577396 0.00023079582 -0.0016448414 0.059419524
0001a0 67 82 a0 3d c1 f4 84 3d 1f 18 70 3d ca 4b 5f 3d
       0.07837372 0.064919956 0.058616754 0.054515637
0001b0 4a 20 8d 3c 15 c9 fa 3c 36 f8 4f 3c 31 b7 b5 3c
       0.01722731 0.030613462 0.012693455 0.022182079
0001c0 e8 c9 93 bc 43 55 c5 3c 5b 9f 9a bc 2a 3e 6e bb
       -0.018040612 0.024088508 -0.018874815 -0.003635297
0001d0 44 d8 33 bc 6f e7 61 bc 4f 3b 30 3d d2 6e db bb
       -0.010976855 -0.013788088 0.04302531 -0.0066965604
0001e0 08 20 46 bb 0d 9c 00 3d 17 54 5e bd d0 67 92 bd
       -0.0030231494 0.03139882 -0.054279413 -0.07148707
0001f0 2d ea 34 bb 3b ed 27 bc 25 24 bc 3c 57 b9 83 3d
       -0.00276054 -0.010249431 0.022966454 0.06431835
000200 ad 1d 76 bd 87 3b f7 bc aa 0d 42 bd c8 6a fd bc
       -0.060086895 -0.030179752 -0.047376312 -0.030934706
000210 c6 dc fb bc 4d 4a 94 3c 4c ee 84 3d 1e 41 70 bb
       -0.030744921 0.018101836 0.06490764 -0.0036659907
000220 5d eb 65 3d 72 0c cc 3b 81 db bd b9 e0 a6 c9 bc
       0.056132663 0.0062270695 -0.00036212432 -0.024615705
000230 86 57 21 ba 47 b5 07 bd 26 5a 8f 3b 04 19 f4 bc
       -0.00061547046 -0.033131864 0.00437476 -0.029797085
000240 e3 b7 cb 3c 29 4b 1b bd f8 47 4e bd 4a 57 5e bd
       0.024867957 -0.037913475 -0.050361603 -0.054282464
000250 07 3f 0a bd 2f 6a b6 bc 23 0e 48 bd 8e 46 95 bd
       -0.033751514 -0.02226743 -0.048841607 -0.07288848
000260 86 84 8d bd f3 58 05 3c 7f 09 89 bc a9 7e b6 bc
       -0.069100425 0.008138883 -0.01672816 -0.022277193
000270 d7 58 21 bd 66 20 18 bd 3b e8 dc bc ad d7 ea ba
       -0.039391365 -0.037140273 -0.026966205 -0.001791706
000280 b8 36 82 3d 06 80 5c 3c 20 cb a4 3d a7 9b 0b 3d
       0.06358093 0.013458258 0.080465555 0.03408399
000290 d8 fc 31 3d f3 13 85 3d 7b 02 9b 3c 6b ec b0 bb
       0.04345402 0.06497946 0.018922081 -0.005399277
0002a0 2d b8 b1 3c bf a9 17 3d 52 06 45 3b 23 f2 0c ba
       0.021694267 0.037027117 0.0030063582 -0.00053766574
0002b0 6e 0c 3e 3c 5d 73 db bc 21 45 03 bd 5d a6 41 bd
       0.011599643 -0.026788408 -0.03204835 -0.047277797
0002c0 a8 26 15 bd 36 75 71 bd b1 ac 42 3d 27 7b 56 bc
       -0.03641382 -0.05894967 0.047527973 -0.013090885
0002d0 a7 6e af bc 94 15 2c bc 32 15 58 3d b0 be 9e 3d
       -0.021415068 -0.0105031915 0.05275459 0.077512145
0002e0 24 3a 2a 3d a5 fe 53 bb db 23 fa bc 0b 55 5c 3d
       0.041559353 -0.0032347825 -0.030534675 0.05379204
0002f0 87 67 e2 ba a4 50 8f 3a 18 fd ad 3d 9a 2a b6 3c
       -0.0017273285 0.0010934067 0.084955394 0.02223711
000300 76 92 6d 3d 01 ae c3 3d fe 63 2d 3b cb 73 09 3c
       0.058001004 0.09554673 0.0026457305 0.008389424
000310 c6 9e 07 3d 50 d3 4c 3d 24 fc 21 3d 83 07 c4 bb
       0.033110403 0.05000621 0.0395471 -0.005982341
000320 be 73 98 bc ac 97 15 bd 68 12 8a bd 61 27 c7 bc
       -0.018609878 -0.0365216 -0.06741792 -0.02431077
000330 f5 0c 8f 3a e9 da d7 bc 85 76 f2 bc 0b 38 15 3c
       0.0010913896 -0.026349502 -0.02959753 0.0091076
000340 24 6d 03 bd f6 97 31 3d bd af db 3c a7 4a 0e 3d
       -0.032086506 0.043357812 0.026817197 0.034739163
000350 a2 0b eb 3c 68 b4 c7 3b db 40 0b be 69 1a 73 bc
       0.02869207 0.006094504 -0.13598959 -0.01483784
000360 8c f6 35 bc 65 db 23 3c d7 41 c1 3d 98 43 49 3d
       -0.011106145 0.010001038 0.09436386 0.049136728
000370 a8 3a 6d 3d 85 73 85 3d 6a 06 5d 3d 33 25 07 3d
       0.057917267 0.06516174 0.053961195 0.03299446
000380 9d 44 ad 3b 56 12 42 bc eb b1 f9 3b 0f 20 8f 3c
       0.0052877204 -0.011845192 0.0076200864 0.017471341
000390 29 2b ac 3c 4b c3 55 bc 5c 99 31 bd 26 33 00 3d
       0.021016674 -0.01304705 -0.043359146 0.03129878
0003a0 30 c4 80 3d dd 1f 38 bd 31 5f 42 bd 3b ea 62 bd
       0.0628742 -0.044952262 -0.047454063 -0.05539916
0003b0 e6 63 45 3b 17 47 7d 3d dc 00 05 3e 23 c3 03 3e
       0.0030119359 0.061835375 0.12988609 0.12867408
0003c0 ae 88 c9 bc 9a cc a5 3b 64 91 a6 bd 26 58 78 3c
       -0.024601307 0.005059791 -0.081332 0.015157735
0003d0 4a 0c cd 3d 88 bf ca 3b cb 9c 4c 3d 5e ab 81 3c
       0.100121096 0.006187383 0.049954217 0.015828785
0003e0 63 5a 4f 3c c5 aa 77 3d e1 6e e8 3c 05 6f db bc
       0.012655827 0.060465593 0.028373184 -0.026786337
0003f0 10 a6 03 3d 1d 77 ea 3b 31 4d 0c bc 5e 2f c6 3a
       0.03214079 0.0071553127 -0.008563326 0.0015120318

layer1.linear.bias f4 [34]
000000 69 c7 ea bb 38 d4 04 3d 52 13 c8 bc 84 70 08 3c
       -0.007164885 0.03242895 -0.024423275 0.008327607
000010 5a 8c 12 bd b8 5f df 3c b7 56 c4 3c fc c2 81 3b
       -0.03577838 0.027267322 0.02396713 0.0039600115
000020 00 f0 e3 3b 2d 59 3b bc 7e ed 69 3b 55 6c 19 bb
       0.0069561005 -0.011434835 0.0035694535 -0.0023410518
000030 5a 6a 67 3c 0b 05 34 bb c5 2a c5 3c 7f 46 72 3b
       0.014124477 -0.0027468826 0.024068246 0.0036968288
000040 d1 66 1e bd 18 16 e7 3c b0 e1 30 bb 2a ce f2 3c
       -0.038672272 0.028208777 -0.002698999 0.029639322
000050 81 27 01 3d 77 5e 87 3c 00 ab fe 39 3f 9b 3e bc
       0.031531814 0.016524537 0.0004857406 -0.011633693
000060 ad 64 75 39 00 a0 f9 3c ec 94 61 3c 05 22 60 bb
       0.00023402525 0.030471802 0.013768416 -0.0034199965
000070 0a d7 d2 3c c3 7b a6 bc 4f 05 0e 3c 81 42 d5 bc
       0.025737304 -0.020322686 0.008668258 -0.026032688
000080 4c 94 90 3c 2e 4d 1f bd
       0.017648838 -0.038891964

layer2.grid_points f4 [3]
000000 77 05 94 bf 12 fb 79 bc 9b 52 83 3f
       -1.1564168 -0.015257614 1.0259584

layer2.spline_weight f4 [10, 34, 3]
000000 07 86 5c bd e6 3a 21 be b3 9e e5 3c 45 48 43 bd
       -0.053838756 -0.15745124 0.028029775 -0.047676343
000010 d3 38 47 3c 40 11 8a bc 6a 23 bc bd 66 d7 12 3d
       0.012159544 -0.016853929 -0.09186442 0.03584995
000020 91 8b 28 3c fa 3c 12 bd 45 e2 37 3c 63 64 96 3e
       0.0102871815 -0.035702683 0.01122338 0.29373464
000030 ba f0 aa bd e7 c7 72 3d 5e 50 5b bd 04 9b 01 3e
       -0.08346696 0.059272673 -0.05354344 0.1265679
000040 c5 7f e6 3d 06 f3 e6 3c 61 c7 45 3d 43 da 34 3a
       0.11254839 0.028192054 0.048285846 0.00068989786
000050 0e 3a e0 bc 97 53 ad 3c f3 fe 83 3d b2 3a e6 3d
       -0.027371433 0.021158023 0.06445112 0.11241664
000060 68 16 fd 3c 55 d0 11 bd 62 2e 83 3d 44 3e 69 bb
       0.030894473 -0.03559907 0.06405331 -0.0035590092
000070 22 c6 a1 3d e6 4b 85 bd 01 31 28 be c5 e5 34 bd
       0.07899119 -0.06508617 -0.16424944 -0.044164438
000080 51 04 9b bc 84 05 20 3d 30 6a b7 bc 0d ab 62 3c
       -0.018922957 0.03906776 -0.022389501 0.013834727
000090 76 85 91 3d 2f 6e 0c 3d c3 dc 64 3d 8a b0 14 3e
       0.07105534 0.034284767 0.055874597 0.1452047
0000a0 38 02 80 3e ce c3 1c 3e 0d 77 31 3e 91 37 50 3e
       0.25001693 0.15309069 0.1733057 0.20333697
0000b0 8c 1f 68 bc 8a 49 8f bd 77 07 12 3c 54 ce 81 bd
       -0.014167678 -0.06996448 0.008912913 -0.06338182
0000c0 54 a1 c0 3d 21 d1 99 bd 71 f2 03 3d 80 cf 7c 3d
       0.09405771 -0.07510591 0.032213632 0.061721325
0000d0 c4 10 9d bc 62 96 12 3c c6 99 76 3d 2a ea 03 be
       -0.019173034 0.008946987 0.060205244 -0.12882295
0000e0 8a d8 65 bd 1d 85 f9 bd 33 e6 b4 3d cc 9e 85 3d
       -0.05611471 -0.121835925 0.088329695 0.06524429
0000f0 79 4c 07 be fc 58 84 bd 69 61 03 bd 0b a8 d0 bd
       -0.13212766 -0.06462285 -0.03207532 -0.10188302
000100 09 6d 7a 3d b2 67 c8 3c 76 34 45 bd 5b 2a 80 3d
       0.06113914 0.024463508 -0.048145734 0.06258079
000110 c5 34 71 3d 72 40 0f ba 0d 2e 2a 3d 2c 37 d3 3c
       0.058888216 -0.000546462 0.041547824 0.025783144
000120 f9 65 4e 3d 9a 88 85 3c 4d f0 1c 3c 05 74 1e be
       0.050390217 0.016300488 0.009578777 -0.15473945
000130 f4 39 05 be cd 39 ae bc 90 d5 ad 3c ad a2 a1 bc
       -0.13010389 -0.021267796 0.021219999 -0.01973089
000140 bc 4b eb 3d 3d 5d e8 bc 65 4f a0 3d dd 36 39 bd
       0.114890546 -0.028364772 0.07827643 -0.045218337
000150 4a d9 92 3e e3 df b0 3e 6b 1b 5e 3e 70 7e 92 bd
       0.28681403 0.34545812 0.21690147 -0.07153022
000160 e9 df 07 bd b0 93 1d bd 2e ba b2 bd dc d1 33 bd
       -0.03317252 -0.038470924 -0.08726917 -0.04390131
000170 38 1d 50 bc 47 0f 75 bb f1 64 20 bd b8 b8 c3 bd
       -0.012702279 -0.003739314 -0.039158765 -0.09556717
000180 80 16 00 3d 4f 8b 4a 3d 40 17 b3 3d 73 51 29 bd
       0.031271458 0.04944926 0.08744669 -0.04133744
000190 06 4d fb bc dd 18 06 3e 6c d8 0d 3c 0b 3a f2 3d
       -0.030676376 0.13095422 0.008657556 0.11827477
0001a0 47 5a ef 3c 8c 42 28 3d f6 0a fb bd e3 ce 2d 3d
       0.029217852 0.04107909 -0.1225795 0.04243363
0001b0 9a bb af bd cd fc b1 bd f2 ab 8e bd 1d 13 51 bc
       -0.08580704 -0.08690796 -0.0696639 -0.012760905
0001c0 a6 5d 3a be 72 bb 09 be 82 cc 2c bd 4a c6 1b be
       -0.18199787 -0.13450411 -0.04218722 -0.1521236
0001d0 d3 7c 0f 3d 02 b6 25 3d e7 de 10 be 76 1b 88 3d
       0.03503115 0.04045678 -0.1414753 0.06645863
0001e0 ba cf 16 3e e3 54 c0 3c 30 79 33 be e9 06 de 3d
       0.14727679 0.023477977 -0.17526698 0.10841162
0001f0 c4 47 3b 3d f3 8b 70 be f4 8b 12 3e 4c 84 ad 3d
       0.045722738 -0.23490886 0.143112 0.08472499
000200 78 6d e6 bc 52 e5 30 3e d1 0d 4f 3e 9d ce 94 3e
       -0.02812837 0.17274979 0.20220114 0.29063883
000210 b0 cb 6d be 9c 08 31 bd 96 25 8e bd 26 d7 33 3d
       -0.23222232 -0.0432211 -0.06940763 0.043906353
000220 bc 86 22 be e1 cf c3 bd f9 e3 24 bc 4b 79 82 bd
       -0.1587171 -0.09561134 -0.010064119 -0.06370791
000230 1b 33 37 be 86 86 36 be fa 4d 64 bd 6e b6 89 3d
       -0.17890589 -0.17824754 -0.055738427 0.06724249
000240 e0 7e e0 bd 2b 45 45 bd d5 54 f3 bd b5 ce 5a bc
       -0.109616995 -0.048161667 -0.11881415 -0.013354947
000250 ac a1 03 3d 21 0c 9e 3d 44 65 69 bd 79 3f 7c bd
       0.032136604 0.07717157 -0.05698134 -0.06158397
000260 7a 28 7c 3d f5 bf 62 3d da a1 fd ba c0 dd eb 3c
       0.06156204 0.055358846 -0.0019350604 0.028792262
000270 ee 2b 24 be a0 12 a5 3d d9 2a 21 3e dc 0c ec bd
       -0.16032383 0.08060193 0.15739001 -0.1152589
000280 02 20 3b 3d 47 90 d3 bd 6b 82 c2 bc be 09 89 3d
       0.045684822 -0.10330253 -0.023743829 0.06691311
000290 c7 08 91 bd 84 d9 01 bd c8 8b 0f 3d 24 74 07 be
       -0.07081752 -0.03170158 0.035045415 -0.13227898
0002a0 8d fd 1a bd b1 3f d8 bc 94 a6 83 bd 8c d6 0e bc
       -0.03783946 -0.026397558 -0.06428257 -0.008718144
0002b0 39 c3 22 be bc 89 20 3d 41 31 74 3e 1a d3 d3 3d
       -0.15894784 0.039193854 0.23846914 0.10342999
0002c0 ae ef 22 3d e0 92 46 be 1b ce e3 bd 69 33 ba bd
       0.039779358 -0.19391966 -0.11123296 -0.09091837
0002d0 07 13 2a 3c cb 1a e6 bc 2a aa 6c 3d 03 4f 54 be
       0.010380513 -0.028088948 0.05777947 -0.20733266
0002e0 47 cf f6 bd 33 40 b0 be 18 a6 50 3d 27 6e 17 3b
       -0.12051254 -0.3442398 0.05093965 0.0023106427
0002f0 1b a3 1f be 4c e2 2d 3d d1 40 fb bc 7a b9 da 3d
       -0.15589564 0.04245214 -0.030670555 0.10679908
000300 64 3c 8b 3d d7 c0 12 be b8 a6 83 3d 47 29 7c 3d
       0.06798628 -0.14331375 0.064282835 0.061562803
000310 b4 3f 68 3d b7 b8 3d bd 03 6a f6 bd e9 4c 2e be
       0.056701377 -0.046318736 -0.12031939 -0.17021526
000320 99 5f f1 bd 3f 69 0b 3d aa 67 1a be ed a2 2a be
       -0.11785812 0.034035917 -0.15078607 -0.16663714
000330 69 fe 5a bd 14 09 5d bd 8a 78 05 3d 13 27 9a 3c
       -0.05346528 -0.053963736 0.032585658 0.01881746
000340 0b f6 b8 bc 2b bd 8d bc 2d 19 77 3d 5a 0c 96 3c
       -0.02257826 -0.017302116 0.060326744 0.018316437
000350 37 45 38 bc 35 f3 dd bd 94 10 27 be ea f7 e8 be
       -0.011246971 -0.10837404 -0.16314918 -0.45501643
000360 49 9e 8a bc b2 91 8e 3d 6f 28 8b 3d e4 b4 0b be
       -0.01692118 0.06961383 0.067948215 -0.13643223
000370 c0 60 d6 3c 73 0e 64 bd 52 f0 c6 3d 7f fb c7 bc
       0.02616918 -0.055677842 0.09713806 -0.024411915
000380 77 f0 63 3b 93 ee 87 3c b7 39 1a be b1 a5 c2 3d
       0.003478078 0.016593253 -0.15061079 0.095042594
000390 c1 63 9f 3d 45 ed 66 3d ad 08 d0 3d 6e c8 e0 bd
       0.077826984 0.05637862 0.10157905 -0.10975729
0003a0 37 7a d5 bd 60 69 9d bd 09 24 02 3e 81 e7 5b bd
       -0.10423701 -0.07686114 0.12709059 -0.053687576
0003b0 14 6c 4d bd b9 9b 9e 3c 03 6f ca bd 50 84 c5 bd
       -0.0501519 0.019361364 -0.09884455 -0.09644377
0003c0 2d 48 71 3a d6 56 db 3d 8d 60 74 3b 20 2c c9 3e
       0.00092041754 0.10709922 0.0037288994 0.39291477
0003d0 b5 86 83 3e 42 dc 31 3e e7 35 67 be 0d 6f 24 3c
       0.2568871 0.17369178 -0.22579156 0.010036242
0003e0 93 4c b1 3c 15 a2 21 bd 77 48 b7 bc cd db b9 3d
       0.021642959 -0.039461214 -0.022373421 0.09075127
0003f0 5d 62 93 3d 0f 16 83 3d 84 5d 89 3d d6 36 1d be
       0.07196496 0.06400692 0.0670729 -0.1535295

layer2.linear.weight f4 [10, 34]
000000 4c a4 3f 3d 8d 8d bc 3c 69 37 c5 3c bf e6 39 3d
       0.046787545 0.023016715 0.024074273 0.045386072
000010 ba e9 97 bc 16 1a 09 3d 2a 07 ba bd ee 92 87 bc
       -0.018544067 0.033472143 -0.09083398 -0.016549554
000020 0a d2 0e 3e bd 4c 03 be 58 67 02 3e 9d 4a 02 3d
       0.13947311 -0.12822242 0.12734735 0.031809438
000030 dd ea 52 bc 00 d4 8b bd 57 a6 d8 3d da ad 4d 3d
       -0.012873379 -0.06827545 0.10578602 0.050214626
000040 18 f3 81 bd cd fb 32 bd 2a 4f 0f bd cd 18 a3 3d
       -0.063451946 -0.043697167 -0.034987606 0.07963715
000050 af 3d 2e bc dc 91 c9 bd 8d d9 16 3e 03 f8 ec 3c
       -0.010634824 -0.098422736 0.14731427 0.028926855
000060 6f e4 d3 3c 2a 15 23 bd 88 b6 26 be 82 91 b4 bd
       0.025865762 -0.039815105 -0.16280568 -0.08816816
000070 c3 a4 47 3d 3e 2f 0e 39 d8 29 ba bd 31 97 18 3e
       0.048741113 0.00013559774 -0.09090012 0.14901425
000080 17 cd f3 bd 88 5e 11 bd 6f 64 f9 bd 85 15 fd bd
       -0.11904352 -0.035490543 -0.12177359 -0.1235762
000090 3a aa 51 3e 19 23 cf bd e3 a8 a7 3d 53 3b 54 be
       0.20475093 -0.10114116 0.081865095 -0.20725755
0000a0 49 39 a2 bd 2e dd 97 bd fe e2 3a 3d 75 10 2b be
       -0.079210825 -0.074152336 0.045626633 -0.16705497
0000b0 6b ff c0 3d 5d fd ec bd 6d d9 23 3e fd 64 67 be
       0.09423717 -0.11571763 0.1600091 -0.22597118
0000c0 26 f0 7a bd 7d b6 7a bd 19 ad 39 be 07 c3 17 3e
       -0.06126418 -0.06120919 -0.18132438 0.14820491
0000d0 6b 3c bc bd c6 a5 b5 bd 1a eb 47 3e 49 47 86 bb
       -0.09191211 -0.088695094 0.19523278 -0.0040978533
0000e0 9f a8 0c be 67 ca 8a 3d a1 eb c0 3d f4 47 67 bd
       -0.13736199 0.067768864 0.09419943 -0.056465104
0000f0 b8 59 68 3e 72 8a 19 be 58 da 0b be 20 54 1d be
       0.22690475 -0.14994219 -0.1365751 -0.15364122
000100 53 e0 23 3e 56 71 49 be ea e0 f5 3d 93 0a 04 3e
       0.16003542 -0.1967214 0.120057896 0.12894659
000110 22 ce 99 bd 65 4b ce 3d ad de 95 bc 01 e1 1b bd
       -0.0751002 0.10072974 -0.018294657 -0.038056377
000120 60 bf d1 3d 1f 92 47 3d ff 92 dd bd 7d 9e a0 bd
       0.1024158 0.048723336 -0.10819053 -0.07842729
000130 eb fe 85 3d 42 29 0c 3d 9f 8f ce bd bd cf c2 bd
       0.06542762 0.034219034 -0.10085987 -0.09512279
000140 ae 58 04 3e 07 69 97 3c 6a 29 85 3d bb 22 a6 bd
       0.12924454 0.018482698 0.0650204 -0.08112093
000150 6c 50 76 3d 63 7f b9 bd 96 86 18 3e ae 38 17 bd
       0.06013529 -0.090575 0.1489509 -0.03691929
000160 ef 1a fd bc fa fe 47 bd 00 ad 61 3d a3 7f c5 3d
       -0.030896632 -0.04882715 0.055096626 0.096434854
000170 f3 65 01 3e b2 d8 73 bd 69 b6 11 be 2d 39 43 3d
       0.12636547 -0.05953283 -0.1422974 0.04766195
000180 56 df 65 bd 41 d1 a6 3d 32 b6 28 3d d3 3f 24 3d
       -0.056121193 0.08145381 0.04118938 0.04009993
000190 19 ac 7d 3c 34 6c 6b bd df 64 69 bd 46 42 ae bd
       0.015482926 -0.057476237 -0.056980964 -0.085087344
0001a0 cc 7e bb bb fa a9 d5 bd 18 9d 60 3d c6 bf c3 bd
       -0.0057219025 -0.10432811 0.054837316 -0.09558062
0001b0 61 76 c8 3c 35 60 d3 bd b1 83 39 be 85 b7 ca 3d
       0.02447051 -0.103210844 -0.18116643 0.09898285
0001c0 59 8f f1 bd 89 94 42 bd ec 7b 85 bc c9 bc 4b 3d
       -0.117949195 -0.047504935 -0.016294442 0.049740586
0001d0 6c 91 3c 3d e4 6c 50 3d 2f 78 6a be 28 ec 9c 3d
       0.046037123 0.050885096 -0.22897409 0.07662231
0001e0 2b f9 32 3e 36 ac dc 3d e7 38 ef 3d c9 6e 97 bd
       0.17477863 0.10775034 0.11680775 -0.073941775
0001f0 a2 ee ca 3d 81 5f 26 be 5f a4 16 3d 23 3d 8b bd
       0.09908797 -0.1624737 0.03677785 -0.0679877
000200 01 17 0e bd e9 c3 d1 bd bb 74 17 bd f8 44 eb 3d
       -0.034689907 -0.10242445 -0.036976557 0.11487764
000210 a8 dc 84 bc 39 81 f5 3c 8a e8 02 be 92 d9 c7 bd
       -0.016218498 0.029968845 -0.12784019 -0.09758295
000220 53 cf 85 bd 0c 56 8a bd 2a ec e1 bd f5 cf c4 bc
       -0.065336846 -0.067546934 -0.11031373 -0.024024943
000230 dc 8f 04 3d e1 93 14 bd d4 8d 19 3e 17 8d ce bd
       0.032363757 -0.03627384 0.1499551 -0.100855045
000240 b9 ba 05 3d 2f 72 84 bd a7 50 a0 3d 44 84 76 3c
       0.032648776 -0.06467091 0.07827883 0.015046183
000250 43 bf 1c 3e 11 0d 26 bd 24 e5 6b bd 84 9a 60 bd
       0.15307336 -0.040539805 -0.057591572 -0.054834858
000260 8a e2 49 3d dd e3 03 bc 76 3b 16 3e 5f dd 03 be
       0.04928831 -0.008049932 0.1467112 -0.12877415
000270 5d 57 29 be d8 25 76 bd 6f 0a 4e bd e1 47 c5 bd
       -0.16537233 -0.060094684 -0.05030292 -0.096328504
000280 ff 24 4f 3d e2 2c c3 bd e5 c5 f6 bd 98 39 e1 3d
       0.05057239 -0.09530045 -0.12049464 0.10997313
000290 35 ab f2 bd 37 e4 13 3c c9 19 0e bd 4e 8c f2 3d
       -0.118490614 0.009026579 -0.03469256 0.11843167
0002a0 4d 51 a1 3c cd 9e 09 be 59 17 51 3e 73 1f 00 3e
       0.019692088 -0.13439484 0.20419063 0.12511997
0002b0 08 bd f0 bc b2 6a 0d 3e ad 86 5a 3a c0 26 03 3e
       -0.029387012 0.13810232 0.00083361083 0.1280775
0002c0 9f d4 0d be 8a ef 5e be 37 33 a3 3b 7d 5a 69 3e
       -0.1385064 -0.21771064 0.0049804705 0.22788425
0002d0 8a 7c 43 be 31 68 4f 3e 8c 2c 06 be 48 02 fe 3d
       -0.19090477 0.2025459 -0.13102931 0.12402779
0002e0 ad 96 ae be a6 73 22 3d a6 57 7f bd 6d 84 ff bd
       -0.34099331 0.039661072 -0.062339447 -0.1247643
0002f0 e9 12 50 be 55 5a 2e 3e 42 ae 33 be 88 b9 39 3e
       -0.20319714 0.17026646 -0.17546943 0.18137181
000300 72 39 14 3e 8b 08 93 bb be ed b4 3d 59 aa ea bc
       0.14475039 -0.0044871024 0.08834408 -0.028645681
000310 ee 00 81 3e 16 0d cd 3d ec 35 9e 3c c9 76 24 be
       0.25196022 0.100122616 0.019312821 -0.16060938
000320 da af 52 bb d9 f4 40 bd fb 5c 66 bd f5 7f 2c 3e
       -0.0032148273 -0.047108505 -0.056241017 0.16845687
000330 76 e8 e7 3b 4c be 71 3d 4a 3b 5a 3d 93 9d 2a be
       0.007077272 0.059019372 0.0532792 -0.16661672
000340 92 d6 9f bd e2 0b 92 3d 07 c8 a6 bc 3d d3 bf bd
       -0.07804598 0.07131173 -0.020359052 -0.093664624
000350 86 90 d1 3c bc 6c 86 bd 39 7f 97 3c e5 bc 2e 3d
       0.02558161 -0.06563708 0.018493282 0.042660613
000360 29 dc 85 3d 0d 70 80 bb 22 98 20 bd bb 02 ae 3d
       0.06536133 -0.0039196075 -0.039207585 0.084966145
000370 de 25 07 be 55 d5 9f bd 0d d5 22 3e fd dd 0a 3d
       -0.13198039 -0.07804362 0.15901585 0.03390311
000380 de 90 a4 bd 2b 70 01 be 22 78 0d 3d 6f 83 cc bc
       -0.08035444 -0.12640445 0.034538396 -0.024965016
000390 19 cb 49 bd 59 f7 4b 3d 04 88 46 be 1a 3f 21 3e
       -0.049265955 0.049796436 -0.19387823 0.15746728
0003a0 2f 37 1a 3e 41 11 61 bc b2 ca 8d bd 38 b4 c3 3d
       0.15060113 -0.013737024 -0.06923427 0.095558584
0003b0 db d3 18 be a0 89 8e bb a9 e3 02 be cf c0 0a 3e
       -0.14924566 -0.0043499023 -0.12782158 0.13550113
0003c0 15 65 ab bd 1d ce 04 bd 46 6d bf 3d 8e e5 39 b9
       -0.08368889 -0.032423127 0.09347014 -0.0001772849
0003d0 3b ec a4 3d d4 fb b1 3e a1 58 3e 3e 37 4c 5d 3e
       0.0805287 0.34762442 0.18588497 0.21611105
0003e0 4d c7 1c be 10 69 31 3e 40 c9 51 be d8 c5 90 3d
       -0.15310402 0.17325234 -0.20486927 0.07068986
0003f0 06 83 7c be dd 7e 45 3e a3 59 db bd 92 28 1c be
       -0.24659356 0.19286676 -0.10710456 -0.15249851

layer2.linear.bias f4 [10]
000000 40 83 11 3e fc 5b 96 bc c0 b8 f4 bd 9e 75 2e 3d
       0.14210224 -0.018354408 -0.11949301 0.042592637
000010 94 8b 1b 3e 99 66 d5 bd 6c 93 0a be 80 0b 43 3c
       0.15189964 -0.104199596 -0.135328 0.011904597
000020 26 f4 c7 bc 2d ed 8c 3d
       -0.024408411 0.06881175
