saved_models/KAN_MNIST_checkpoint.pth (torch, 432625 bytes, 6 tensors)

layer1.base_weight f4 [15, 784]
000000 40 41 32 ba 31 b6 ad bd 9f a2 9f bd 78 1b 0d 3d
       -0.0006799884 -0.08482016 -0.077946894 0.034450024
000010 42 8c 95 3d f6 fc 77 3d 56 0d 3f bd 39 2a 2b 3d
       0.07302143 0.060543977 -0.046643578 0.041788314
000020 64 28 6f 3d 71 6c 29 bc f6 95 00 3d 9e db 07 bd
       0.05838813 -0.010340796 0.031393014 -0.033168428
000030 2d 46 38 3d 7d e7 4a bd 31 ec 8c bd dc a1 8e 3d
       0.0449888 -0.04953717 -0.068809874 0.06964466
000040 68 b4 aa bd ce 71 9c 3d c2 e6 e4 3c 28 cb 7e 3d
       -0.08335191 0.07638894 0.027942065 0.062205464
000050 01 e4 30 bd 1f b6 96 3d c7 d8 91 3d cc 28 4f 3d
       -0.04318619 0.073589556 0.07121425 0.050576016
000060 05 ef 86 bd 87 d5 89 bc ad e6 43 bd 86 0d fa bc
       -0.06588558 -0.01682545 -0.04782741 -0.030524027
000070 bf 57 6a 3d c6 b3 d0 bc ca 9f 3a bc 7b 2b ae bd
       0.057212587 -0.025476348 -0.011390636 -0.08504387
000080 69 fa ba 3c 7b b6 53 bd 71 8c 21 3d 4c 1b 27 bd
       0.022824483 -0.0516877 0.039440576 -0.040797517
000090 d9 66 8d bd 27 b0 c0 bc c8 31 90 bd bb a9 39 3b
       -0.06904382 -0.023521496 -0.07040745 0.0028329927
0000a0 3e 07 b0 3c 8d 0f ba bd be 69 a6 3d 72 68 90 bd
       0.021487828 -0.09084997 0.081256375 -0.07051171
0000b0 d4 49 8d 3d 74 7c a2 bb 01 ef 02 bd 47 6a 44 bd
       0.06898847 -0.0049586836 -0.031966213 -0.047952916
0000c0 20 cb 66 bc 14 93 13 3d 3c de be bb b6 5c e7 3c
       -0.014086515 0.036028937 -0.0058248322 0.02824245
0000d0 0b 57 ee 3c 06 5f 4b bd 6a 5a d8 bc 3d 96 2a 3d
       0.02909424 -0.04965117 -0.0264103 0.041647185
0000e0 5b fe 5c 3d 53 7b 69 3d ca 55 5e bd f0 27 86 ba
       0.05395351 0.057002377 -0.054281034 -0.0010235291
0000f0 94 67 6f bd 68 58 01 bd 5b ce 60 3d 51 db 10 bd
       -0.05844839 -0.03157845 0.054884296 -0.035365406
000100 c0 51 6b bd 9f 10 73 bd 6c a9 68 bd 48 c0 e5 bc
       -0.05745101 -0.059342023 -0.0568022 -0.028045788
000110 0e f8 9b bd 94 28 27 bd b0 d2 9a bc af 4a 6f 3d
       -0.07615672 -0.040810183 -0.018899292 0.058420833
000120 81 71 b6 bc cf 95 f7 3c 62 b5 a5 bc 22 8e 7a 3d
       -0.02227092 0.030222801 -0.020228092 0.061170705
000130 8a bd c9 35 a0 69 97 3d ae 16 82 bb 38 c5 25 bd
       1.503083e-06 0.07393193 -0.003969989 -0.040471286
000140 82 9b e0 bc ce ce 2b 3d 82 b0 f0 bc eb 10 0f bd
       -0.027417902 0.04194527 -0.02938104 -0.034928244
000150 c4 17 8e 3d a6 26 a0 3d 2a 56 f0 ba 8b 5d 70 bc
       0.06938127 0.078198716 -0.0018336226 -0.01467074
000160 50 f8 be b9 7b fc 53 bd cb ea 1a 3d 59 6a 7a 3d
       -0.0003642463 -0.051754456 0.037821572 0.061136577
000170 b8 8a 8a 3d 9e 12 06 bd 50 6c 53 3d af 16 0e bc
       0.0676474 -0.0327326 0.051616967 -0.0086724
000180 3e b2 87 3d 6b 4f aa 3d 3d c5 c0 3b e0 fb e5 3c
       0.06625794 0.08315929 0.0058828876 0.028074205
000190 3b c5 96 bd 15 8e ba bd 61 f5 9d 3c bb 9c 60 b9
       -0.073618375 -0.09109131 0.019282045 -0.00021420691
0001a0 d1 8c a6 3d cb 34 8f 3d 8b eb 34 bd af b6 75 3d
       0.08132327 0.06992491 -0.044169944 0.059988674
0001b0 0d 70 95 3d b2 2b 2e 3d 43 ee 19 3d df 2c 19 bb
       0.072967626 0.04252214 0.03758074 -0.0023372693
0001c0 cc f7 08 3c 98 2f 1d bc b8 1e f9 bc 44 a2 b1 3b
       0.008359861 -0.009593867 -0.030410156 0.005420955
0001d0 20 7a 1a bd 7d c7 01 bc 9f 08 72 3b 95 ab e6 bc
       -0.037714124 -0.007921097 0.0036931408 -0.028157989
0001e0 27 79 26 bc 3c e3 fc bc 80 68 8c 3d 07 e7 3d 3d
       -0.010160721 -0.030870073 0.06855869 0.046362903
0001f0 b0 4e 3d 3d 49 1e 41 3c 42 0d e5 3b ba c7 9d bd
       0.04621762 0.011787006 0.006990106 -0.077041104
000200 c5 dc 1f bd 78 42 36 bd 7d e7 8d 3c c9 40 c0 bd
       -0.0390289 -0.044496983 0.017322296 -0.09387357
000210 ff 9e 35 bd 1f 85 38 bd e1 38 f6 3b d3 e9 77 3d
       -0.044341084 -0.04504883 0.0075141047 0.060525727
000220 e8 23 e3 3d af 7c 84 bd d2 eb 67 3d 1d 5e a4 bd
       0.11090833 -0.06469094 0.05662138 -0.08025763
000230 f7 ca 5a 3d c5 2d d4 3c 40 3d 0f 3d d3 fb 02 3d
       0.05341622 0.02590073 0.034970522 0.03197844
000240 cf da a9 bc e2 9b 1d 3d 44 cb a2 3d da 95 1c 3d
       -0.020734219 0.03847874 0.07948926 0.038228847
000250 35 1c 1f 3e 14 d7 17 3e 7d 1e a9 3b cb d4 55 bd
       0.15538104 0.1482814 0.005161105 -0.05220489
000260 43 97 ea bd f9 a0 b4 bd 13 92 a5 bc 37 44 5c bd
       -0.11454632 -0.088197656 -0.020211255 -0.053775992
000270 41 e0 5f bc bc 3c 38 3d c1 50 01 be 1b 57 be bd
       -0.013664306 0.044979796 -0.12628461 -0.09293958
000280 93 f5 39 3d 8e c5 cf bd a0 78 b3 bd c0 c6 32 bd
       0.045400213 -0.101451024 -0.08763242 -0.043646574
000290 20 39 93 3d 47 6e aa 3d ef fd a7 bd 5d a7 72 bd
       0.0718863 0.08321815 -0.08202731 -0.05924164
0002a0 b6 e5 73 bd 77 e8 13 3d 11 9c 72 3d 24 d0 96 bd
       -0.05954524 0.036110368 0.059230868 -0.073639184
0002b0 86 69 34 3d 35 66 fa 3b 7c a5 33 bd 6e f2 90 3d
       0.044045947 0.0076415786 -0.04385899 0.0707749
0002c0 ba 73 33 bd 8b 9b 88 bc 8e e9 03 be 9a 0b 22 be
       -0.043811537 -0.016675731 -0.12882063 -0.15824738
0002d0 86 f8 e5 bc 13 92 01 be 79 10 e1 bd 79 45 66 3c
       -0.028072607 -0.12653379 -0.1098947 0.0140546495
0002e0 11 89 16 3d d2 66 11 bc 88 6c 49 bc ed 1a 27 bc
       0.03675181 -0.008874612 -0.012293942 -0.010199291
0002f0 d0 c0 32 be 12 35 49 bd 3c bc 20 be 3c 62 47 bd
       -0.17456365 -0.049122877 -0.15696806 -0.048677668
000300 1b f4 0d bd ca 94 05 3d f9 63 76 bd 6e 2f 68 ba
       -0.034656625 0.0326126 -0.060153935 -0.0008857165
000310 7d 1a a7 bd be bf a0 3b f1 9d bf 3c 0d 22 58 3d
       -0.08159349 0.00490567 0.023390742 0.05276685
000320 55 b7 79 bd eb 07 da bd e9 3c ad bd 0e 86 9b bd
       -0.060965855 -0.106460415 -0.08458883 -0.07593928
000330 25 f7 89 b8 6f 76 8d bd 66 fc 26 bd 91 a2 d3 bd
       -6.578703e-05 -0.06907355 -0.04076805 -0.103337415
000340 5f b5 b9 3b 43 25 ee bd 4c 32 51 bd a2 96 cc bd
       0.005667373 -0.11628201 -0.051073357 -0.099896684
000350 bb fc c1 bd 5b 71 79 3d 67 18 5c bd 26 ce dc bd
       -0.09472033 0.06089912 -0.05373421 -0.10781507
000360 c9 cb b9 bd 66 cd a8 bd 74 9c d0 bd 83 cd f2 bd
       -0.09072072 -0.08242302 -0.10186091 -0.118556045
000370 3e 3d 79 bd d4 fb f2 bd 81 5e 8b bd bd 87 af 3d
       -0.06084942 -0.11864439 -0.068051346 0.08570812
000380 3a f3 8a 3d c2 22 3a 3b bc 73 89 bc 3f 6b b5 bd
       0.06784673 0.0028402065 -0.01677882 -0.08858346
000390 b9 38 25 bd e8 15 97 3a d1 ed 48 3d 2e ff 5e bd
       -0.040337298 0.0011526914 0.049054924 -0.054442577
0003a0 54 2f 8d bc 52 8f 3e bd 85 54 1c bd ec b8 52 bd
       -0.017234482 -0.0465234 -0.03816654 -0.051445886
0003b0 7d e8 47 bc e8 49 4e bd f6 c1 e8 bc aa af db bc
       -0.012201426 -0.05036345 -0.0284128 -0.026817162
0003c0 49 2d 04 bd 4d ba 05 be f6 a6 a4 bd f1 6b 54 3b
       -0.03226975 -0.1305935 -0.08039658 0.003241297
0003d0 fb 90 62 bd a0 d5 85 bd fb 7b 46 bd 3f f5 87 bd
       -0.055314045 -0.06534886 -0.04845808 -0.06638574
0003e0 0b dc ca bd ba 21 83 bd 64 3f 7b bd ba b6 44 bd
       -0.09905251 -0.06402917 -0.06133975 -0.048025824
0003f0 43 1e 90 3c bb b9 ff bc 07 b8 35 bd 65 0e c3 bd
       0.017592555 -0.031216493 -0.044364955 -0.0952423

layer1.spline_weight f4 [15, 784, 8]
000000 50 7f a9 3c d5 b6 a8 3b d2 55 aa 38 86 aa 03 bb
       0.02069059 0.0051487484 8.122217e-05 -0.0020090654
000010 d0 f8 b3 bc be fb 27 3a 3a 6b 0d ba 76 a0 24 bc
       -0.021969229 0.0006408057 -0.0005394701 -0.0100480225
000020 c0 4e 82 3c 84 29 22 bc 4f ce 99 bb 27 85 06 3c
       0.015906692 -0.009897593 -0.0046937834 0.008210457
000030 b7 ea 04 bb 7b db a3 ba f2 51 0d bc 49 9e db 3b
       -0.0020281503 -0.0012501323 -0.008625494 0.0067022187
000040 b7 b6 c1 3c de 2f 0d bc 87 2c f5 bb 53 74 d4 bb
       0.023646696 -0.008617369 -0.0074821147 -0.0064835935
000050 4e 61 16 3c 2d 08 30 3c 85 70 39 3a d6 a5 ad bb
       0.009178473 0.010744137 0.00070739567 -0.00529931
000060 3e 1a 8e bc af 3a 8f 3c 5b 07 85 bc eb 45 9b bb
       -0.017346498 0.017484037 -0.016238859 -0.0047385595
000070 6a fb 73 bc be 78 38 bc 44 99 51 3c 2e c7 b1 3b
       -0.014891485 -0.011259256 0.012792889 0.0054253554
000080 92 30 87 3c 19 8b a4 3c 5d d0 48 bc 45 25 38 bc
       0.016502652 0.020085858 -0.012256709 -0.0112393545
000090 14 be cb 3b 99 4e 00 bd 21 88 a1 bc f7 70 23 bc
       0.0062177274 -0.031324957 -0.019718232 -0.009975663
0000a0 d5 6d 03 b9 6a 53 19 3c 01 40 31 bc 24 10 2f bb
       -0.00012534049 0.009358266 -0.010818482 -0.0026712501
0000b0 13 e4 07 bc 92 b5 ee 3b cd dd bb bb 02 1c 1b bc
       -0.008294123 0.0072848285 -0.005733228 -0.009467127
0000c0 d3 ff e0 3a 62 28 8c 3b 9e 12 38 3b dd 95 00 3c
       0.0017166085 0.004277275 0.0028087269 0.00784823
0000d0 95 19 b2 bb e1 e3 d0 3b d8 8b 59 3b 5e dc 98 b7
       -0.0054351785 0.0063748215 0.0033194926 -1.8222428e-05
0000e0 fe 91 32 39 ec c1 2a bb ba 3a 95 bb e0 35 98 3a
       0.00017029789 -0.0026055528 -0.00455412 0.0011612736
0000f0 86 77 de bc 05 3d 56 bc 89 5a 30 3b 3b db 0a bb
       -0.027156603 -0.013076072 0.0026909432 -0.00211878
000100 69 44 9b 3c 54 44 e6 39 9a 54 39 bc 89 d3 5d bb
       0.018953519 0.00043919927 -0.0113116745 -0.0033848009
000110 3d e7 5b bb 3d 60 73 bb 37 67 7b 3b 7e f2 db 3b
       -0.0033554577 -0.003713622 0.0038361081 0.006712257
000120 96 86 f6 39 28 45 2f 3b 7b 19 a3 39 42 47 29 bc
       0.0004702105 0.0026744101 0.00031108767 -0.010331931
000130 f7 d2 a7 3b ee 31 f5 3b dc c4 ad 3c 0b 8a b6 bb
       0.0051215845 0.0074827587 0.021212034 -0.005570655
000140 d1 52 84 3c 17 b6 5a bb bf 0a 43 bc 0d 9f 0c 3a
       0.016152771 -0.0033372694 -0.011904418 0.00053642766
000150 49 41 21 bb d5 be bb 3b 2e 36 bb bb e2 ce fe 3a
       -0.0024605563 0.005729536 -0.005713246 0.0019440318
000160 cb 96 47 3c 70 ec 13 bc 56 f7 0e 3c f4 6c 2c bc
       0.012181948 -0.009028539 0.008725962 -0.010524023
000170 7e 4b a4 bb ae b9 2d 3b 67 47 dd bb ef 2d b4 3c
       -0.005013882 0.0026508379 -0.0067528966 0.02199456
000180 bf 89 63 3c 9f 86 ef bb 3d 41 c4 3b 1f ff b5 bd
       0.013887822 -0.0073097493 0.0059892223 -0.08886551
000190 e1 14 df bd 9d 93 9c bd 42 4d 21 bc 36 e0 26 bb
       -0.10892654 -0.076453425 -0.00984508 -0.002546323
0001a0 29 6b 85 bc ec 69 73 3c b6 23 3c 3c 5e 1c 1d bb
       -0.01628645 0.014856797 0.0114831235 -0.0023973207
0001b0 32 eb bb 3c 8c e3 a4 bc 12 7f 9f bd ea 97 d7 bd
       0.022939298 -0.020128034 -0.077879086 -0.10527022
0001c0 bb 43 88 3b 6a 9b 10 3a 1c 35 c3 3b 10 73 a3 bc
       0.0041584647 0.00055163226 0.005957259 -0.019952327
0001d0 4a 99 6d 3c 2f 51 07 3c fc 02 99 3c 8f 7f cb 39
       0.014501879 0.008259102 0.01867818 0.00038814216
0001e0 46 44 7e bc 1a ef 5d ba b0 76 48 3c d3 2c 58 3c
       -0.015519207 -0.000846611 0.012235329 0.013194281
0001f0 06 db a7 bb f7 76 47 3c de a5 38 bc 85 db 2b bb
       -0.005122545 0.0121743595 -0.011270015 -0.0026223373
000200 1a 5d 4d bb 79 89 a6 3b 9d e1 f1 bb 7b 43 e2 bc
       -0.003133601 0.005082306 -0.0073816315 -0.027620068
000210 3b 6f 8a bc e9 fb 21 3c b8 09 66 3c be e5 1d 3c
       -0.016898742 0.00988672 0.014040403 0.009637294
000220 aa d8 b5 3b fc db 3d 3c f5 db 64 bb 04 12 37 bc
       0.00554951 0.011588093 -0.0034921144 -0.011173729
000230 ca 74 9e bb a7 2a 17 bc 2d 23 46 bb 13 de 1b 3b
       -0.0048356997 -0.009226478 -0.0030233369 0.002378349
000240 db 14 b3 bc 4b 38 7d 3c 3f b9 be 3b ba 2f 09 bc
       -0.02186053 0.015455316 0.005820423 -0.008373195
000250 8d 60 c5 3b a9 ab c0 ba de cb 34 3c b0 31 09 bc
       0.0060234726 -0.0014699596 0.011034934 -0.008373663
000260 10 88 c8 3b a4 a3 c8 bb 5a 82 94 3b 0b 34 4b 3c
       0.0061197355 -0.006123023 0.0045321407 0.012402545
000270 1d df 63 3c 69 84 54 3c e9 c2 27 3c a1 e2 8e 3b
       0.013908175 0.012971022 0.010239341 0.0043605124
000280 cd 8f 40 3b cd c8 94 3c 69 bd 1f 3c 7b b4 59 bb
       0.0029382587 0.018162156 0.009749749 -0.0033219147
000290 f4 f1 71 bb a7 90 94 bc a7 2f 64 3b 3c 2c 40 3b
       -0.0036917897 -0.018135382 0.0034818442 0.002932324
0002a0 0b 4a dd 3b de 16 08 bb 05 1c 97 3b e2 1c 84 bb
       0.0067532114 -0.0020765583 0.0046114945 -0.0040317634
0002b0 b6 32 85 bc 19 5c 45 bc 82 1a 5f 3c f7 f0 aa bc
       -0.016259532 -0.012045884 0.01361716 -0.020866854
0002c0 97 08 12 bc 0a 3e 73 bc d5 4c dd bc 24 28 66 bc
       -0.008913181 -0.014846334 -0.027014175 -0.014047656
0002d0 8d a9 33 3c 9e 5e 76 3c 95 65 7e ba 27 53 d1 3b
       0.010965717 0.015037207 -0.0009704468 0.0063880864
0002e0 61 0c 7c bb 50 ab 1d 3a e2 d2 43 bb a4 ed a4 3b
       -0.0038459527 0.0006014602 -0.0029880335 0.005033212
0002f0 62 a8 c5 bb 0f 80 d8 3a f3 d6 fd 3b d7 95 37 3c
       -0.0060320357 0.0016517657 0.007746571 0.011205158
000300 3f f5 b7 3b 92 b4 66 3b 59 d6 5b 3b 61 fd 33 bc
       0.0056139524 0.0035202843 0.003354451 -0.010985703
000310 8f 34 b0 bc 74 ee 53 bc 4a e1 eb 3b a1 a5 78 3b
       -0.021509437 -0.01293527 0.0071984874 0.003794052
000320 d2 ba 30 3c 72 db d0 bb 50 ec 3b 3a 42 2f 72 3c
       0.010786729 -0.006373816 0.0007168697 0.014781775
000330 b9 a3 37 3c 9e 92 f4 3b 97 ee 46 3c bb ce 6d 3c
       0.011208468 0.007463767 0.012141845 0.01451462
000340 0b dd c4 bb dc 1a 19 39 dd e9 57 bc 4a 98 00 39
       -0.0060077957 0.00014601223 -0.013178316 0.00012263763
000350 72 65 bf 3b 37 a1 86 bb c0 65 eb 3c 35 44 44 bc
       0.0058409506 -0.004108574 0.028735042 -0.011979152
000360 fe ac 62 39 86 2d 1e bc d7 17 87 3c 1c a5 86 3b
       0.00021617484 -0.009654408 0.01649086 0.004109038
000370 8f e6 cb ba ad 3d 96 3b 89 0a 7d bb 15 4f cb bb
       -0.0015556383 0.004584989 -0.0038611016 -0.0062044957
000380 26 d5 62 bc 83 4a fb bc 99 2f 0e 3c bd d2 8c 3b
       -0.013844764 -0.030675178 0.00867834 0.004297583
000390 7d 0e 0e 3c de 84 08 b9 cf 82 79 3b 0e 37 56 ba
       0.008670446 -0.00013019468 0.0038072353 -0.0008171656
0003a0 a1 91 b2 bb f9 91 0d bc b0 df 96 37 77 00 2c bb
       -0.005449489 -0.00864076 1.7985556e-05 -0.0026245394
0003b0 41 2c 93 bb 3b 6d c4 bc 8f 53 1f bb 1d 32 ab 3c
       -0.0044913595 -0.023977866 -0.002431128 0.02089792
0003c0 38 45 68 bc 4b 1b 0c bb 5b 8a 1f 3c ab 44 28 3b
       -0.014176659 -0.0021378573 0.009737576 0.0025675695
0003d0 8f 5b f3 ba d8 b1 c2 ba 6b 60 cf bb f7 87 31 3b
       -0.0018566715 -0.0014854027 -0.0063286326 0.0027089098
0003e0 9b c7 9f 3c 16 fa fe bb eb 0d 0d 3c 20 33 ae 3c
       0.019504359 -0.0077812774 0.008609275 0.021264613
0003f0 9b 91 a7 bb c7 8c b0 3c 14 ec be 3b 7d 87 b1 bc
       -0.005113793 0.021551503 0.0058264825 -0.021671051

layer1.grid f4 [12]
000000 cd cc 0c c0 66 66 e6 bf 33 33 b3 bf 00 00 80 bf
       -2.2 -1.8 -1.4 -1.0
000010 9a 99 19 bf cc cc 4c be d0 cc 4c 3e 9a 99 19 3f
       -0.6 -0.19999999 0.20000005 0.6
000020 00 00 80 3f 34 33 b3 3f 66 66 e6 3f cd cc 0c 40
       1.0 1.4000001 1.8 2.2

layer2.base_weight f4 [10, 15]
000000 d5 f6 d0 be c7 9f cb bd ce a1 f5 3e e5 3c a9 bd
       -0.40813318 -0.099425845 0.4797501 -0.08263568
000010 aa b2 4e be 8c 18 fd be 70 14 ad be e5 88 74 3e
       -0.20185342 -0.4943279 -0.33804655 0.23880346
000020 b2 4c ea be 30 13 0d 3f 3e 74 aa be 0e d0 c5 be
       -0.4576164 0.551074 -0.3329181 -0.38635296
000030 4e 78 11 be fd 11 47 3e bc 2e 09 3f 68 4c e2 be
       -0.14206049 0.19440456 0.53586936 -0.44198918
000040 0a f0 85 3e 56 1d 26 be 92 2e 15 bf d9 44 29 3f
       0.26159698 -0.16222128 -0.58274186 0.6612068
000050 6a b0 ed be 0f b8 04 3e 0a 84 8e 3d 09 ea 04 3f
       -0.46423656 0.12960838 0.06958778 0.5191961
000060 05 11 35 bf ce 85 0e bf 59 79 2d bf a6 74 02 3f
       -0.70729095 -0.5567292 -0.67763287 0.5095924
000070 f6 1a b4 be 3a 93 91 3e 7d 53 13 3f 90 4c 62 3e
       -0.3517682 0.28432637 0.5754927 0.22099519
000080 40 d8 f5 3e 80 ac 01 bf ea d6 46 bf cd 94 04 be
       0.48016548 -0.5065384 -0.7767168 -0.12947388
000090 3d b0 62 3e 67 15 d3 be 43 37 cc be ed a1 bb bc
       0.22137542 -0.41227266 -0.3988591 -0.02290436
0000a0 90 df 0c bf b4 8a b8 3e a1 a8 4e 3f 03 5f 8b be
       -0.5502863 0.36043322 0.8072606 -0.27220926
0000b0 21 e6 26 bf 77 ff 09 be fb 9e 9a be f0 9f 0b 3f
       -0.651949 -0.13476358 -0.30199417 0.5454092
0000c0 74 74 76 3e e1 94 8c be 5d c9 ca 3e e5 73 ca 3c
       0.24067861 -0.27457336 0.39606753 0.024713466
0000d0 a8 6d c1 be 7e 05 63 3e 9b f7 12 bf d4 c8 e3 be
       -0.37778974 0.22170064 -0.57409066 -0.44489157
0000e0 76 02 58 3e 8f 8c 7b be d6 cf f3 be 95 52 5d bf
       0.21094689 -0.24565338 -0.47619504 -0.86454135
0000f0 38 66 82 3e 54 b2 b2 be e4 85 28 3d 52 b1 39 bf
       0.25468612 -0.3490168 0.041143313 -0.72536194
000100 51 02 29 3f aa 8b e5 3a 62 34 3d 3e d5 b8 34 bd
       0.6601916 0.0017512937 0.18477014 -0.044121582
000110 63 f0 1e bf 7e af 83 3e d6 6e 0e 3f 95 1f d7 be
       -0.6208555 0.25719827 0.5563787 -0.42016283
000120 5f f6 53 bf 5a 34 13 3e 1b a3 80 3d 49 58 92 3b
       -0.8279781 0.1437544 0.0628111 0.004466091
000130 8e 96 62 be ff 65 fc 3d c7 66 25 bf 43 0c e4 3d
       -0.22127745 0.12324142 -0.6460995 0.11135151
000140 2b cd 2a 3e bc e7 8d bf 64 81 97 be 4c ef f8 3e
       0.16679828 -1.1086345 -0.29590905 0.4862007
000150 d1 2e 8f 3b 3a 7c 81 3e 74 71 fc 3e 03 26 f8 bb
       0.0043695946 0.2529009 0.49305308 -0.0075728907
000160 7e 34 23 3f f0 d7 34 bf 63 3d 77 bc c9 4e 03 3f
       0.6375197 -0.70641994 -0.015090319 0.5129209
000170 7b d0 af 3d be b0 67 3e 00 47 5b bf 27 c6 09 be
       0.08584686 0.22626016 -0.8565521 -0.13454495
000180 58 92 2e bf e2 63 90 bd 75 bf 99 be ba 53 48 bf
       -0.6819205 -0.07050301 -0.30028883 -0.78252757
000190 da 2e 10 3f 14 4f ee be c1 9b 83 bd 31 ad 67 3e
       0.5632149 -0.46544707 -0.06426192 0.22624661
0001a0 05 21 be 3d b9 15 15 bc 52 19 ab be ad 70 df 3b
       0.09283642 -0.009099417 -0.33417755 0.006818852
0001b0 a8 b0 37 3f 0d 24 cd 3e 86 2b 98 bb 82 d3 be bc
       0.7175393 0.40066567 -0.0046438603 -0.023294214
0001c0 36 61 04 bf e5 ab bf 3b b7 75 03 3e 52 f0 ba 3e
       -0.5171083 0.005849349 0.12837873 0.36511475
0001d0 f7 cf 11 bf e6 65 05 3f df fa 93 be 95 1d 40 3f
       -0.56957954 0.5210861 -0.28902337 0.7504514
0001e0 24 ff 4d bf aa 93 d7 be aa 89 00 bf 38 66 15 bb
       -0.8046744 -0.42104846 -0.5021006 -0.0022796523
0001f0 7d c7 0f bf 25 eb 2d 3f 6f 29 c4 be 91 49 e1 3d
       -0.5616377 0.6793693 -0.3831286 0.1100036
000200 4b 82 25 bf ce ce b1 be d5 6e da 3a 25 7a 2c 3e
       -0.64651936 -0.34728092 0.0016665111 0.1684347
000210 9d 32 2e be 1d 8c 8c be 3d b7 ef bd aa 15 a4 3e
       -0.17011495 -0.27450648 -0.11704872 0.32047778
000220 29 69 55 bf 9f bc 17 bf 57 1a c0 3e c1 fc aa be
       -0.83363587 -0.5927219 0.37520096 -0.3339596
000230 8d 50 14 bf 65 fc 44 bd db 63 b6 3d cf 1b 75 3e
       -0.5793541 -0.048092265 0.08905765 0.2393639
000240 a0 c3 93 be 6c 19 f0 3e 76 32 7b 3e d1 b4 64 bf
       -0.28860188 0.46894395 0.24530968 -0.89338404
000250 32 85 eb be 45 2c 03 bf
       -0.46000057 -0.51239425

layer2.spline_weight f4 [10, 15, 8]
000000 80 c9 b4 3d 63 c9 f3 3c 92 e7 70 3d c7 ee 80 3d
       0.088274956 0.029759115 0.058814593 0.06295543
000010 3c a0 a0 3c 4a 33 cb 3d 19 cc d2 3d c3 66 f4 bc
       0.019607656 0.09921892 0.10292835 -0.029834157
000020 99 62 3f bd ab 85 43 bd 2e 14 95 bd 0b 7a d1 bd
       -0.04672489 -0.047734898 -0.072792396 -0.10228356
000030 bf 2f 7a bd eb ba 52 bc 7e 6e 47 bc 14 90 8a bc
       -0.06108069 -0.0128619475 -0.0121723395 -0.016914405
000040 f3 13 6e 3d 55 a9 99 3d 6c 35 93 3d 79 0a cb 3c
       0.058124494 0.07503001 0.07187924 0.024785267
000050 94 fc 2c 3d b9 3e fc bc 8f 39 aa bd 4e f6 18 be
       0.042233065 -0.030791627 -0.0831176 -0.14937708
000060 95 55 0f be 20 78 09 be 55 15 2c be 36 1b f9 bd
       -0.1399749 -0.1342473 -0.16805013 -0.12163393
000070 81 3a 0a be 62 4d ee bd b4 c6 c5 bd 2c c2 3d be
       -0.1349888 -0.11635853 -0.0965704 -0.18531102
000080 d9 b6 12 3e 51 f8 bd 3d 2b c6 ad 3d ad a7 5f 3d
       0.14327563 0.09275878 0.08485063 0.054603267
000090 4f 71 b5 3b 0d 4e 2f bb 8c 43 8f bc 73 71 63 bd
       0.005537189 -0.0026749403 -0.017488264 -0.055528115
0000a0 5e 7b d9 bd 29 ba 6a bd 10 38 a9 bc d3 6c a7 bd
       -0.106192335 -0.057306442 -0.020656615 -0.081750534
0000b0 4a 98 e5 bc 3b 51 00 3c e8 dc 2e bd 4b bd 30 bd
       -0.028026719 0.007831867 -0.04269114 -0.043149274
0000c0 88 9d 6b be 50 e1 64 be cd 51 3d be 35 a8 2c be
       -0.23009312 -0.22351575 -0.18488236 -0.16861041
0000d0 64 f9 90 bd 70 09 96 bd fe 03 8d bc 04 db 38 bc
       -0.070788175 -0.07326019 -0.017213818 -0.011282686
0000e0 f9 6f 18 3c bb af ea ba bb ab 7d 3c 46 05 25 3c
       0.00930404 -0.0017905155 0.015482838 0.010072058
0000f0 de 0e 75 bc ac 18 cc ba cc 45 ea ba 7d 16 aa 3c
       -0.014957158 -0.0015571318 -0.0017873584 0.020762676
000100 e4 94 33 bc 2a 7f 8a bd 29 a2 7b bd 8c 50 23 bd
       -0.010960791 -0.06762536 -0.061433945 -0.039871737
000110 71 91 66 bd d0 b6 d5 bc 48 c1 10 bd 64 d8 a4 3d
       -0.056291047 -0.026088148 -0.035340577 0.08049086
000120 ef 0a 02 bf 61 0d 08 be 67 35 27 bd 2e f7 b6 bd
       -0.50797933 -0.13286354 -0.040822413 -0.089338645
000130 de 04 3a be 20 a4 51 be 2b 3d 26 be 1e 8b d2 bd
       -0.18165919 -0.20472765 -0.16234271 -0.10280441
000140 97 7e 6a 3d af d6 26 3b aa da 77 bd 8f af be bd
       0.05724963 0.0025457551 -0.06051127 -0.09310829
000150 96 38 a4 bd be 71 4a bd c6 ba 97 bd 7b 70 1a bd
       -0.080186054 -0.04942488 -0.07408671 -0.037704926
000160 52 95 f4 3d 2c 99 bd 3d f3 90 b7 3d 56 0a 05 3e
       0.11942543 0.09257731 0.08963194 0.12992224
000170 c5 30 35 3e 03 d1 4f 3e 7e 61 f5 3d 99 06 48 3d
       0.17694385 0.20294575 0.11981486 0.048834417
000180 99 7d cf bd d3 87 5c bd 98 58 5a 3c c6 f3 4a 3d
       -0.10131378 -0.05384047 0.013326786 0.049548887
000190 9c 0b 09 3e 82 52 38 3e 3a 50 82 3e dc 2d 9a 3e
       0.13383335 0.18000224 0.25451833 0.30113113
0001a0 5f f9 f8 3c a7 10 52 3c a4 e4 01 3c fe d5 99 bc
       0.030392347 0.012821353 0.007928047 -0.018778797
0001b0 90 d9 77 bc 51 5a 0a 3c 4b e9 30 bd 61 dd e9 bc
       -0.015127555 0.008444385 -0.043191236 -0.028547945
0001c0 bd 90 c7 bd 9c 59 5f bc d4 b4 90 3d 67 83 c5 3d
       -0.097444035 -0.013632204 0.0706574 0.09644204
0001d0 f7 c7 ae bb dd f4 70 bc 0b b3 9e bd 23 90 80 bd
       -0.0053338963 -0.014706817 -0.077489935 -0.06277492
0001e0 90 68 05 be e6 2b cd bb 02 74 e7 3c 09 fb 76 3d
       -0.13028169 -0.0062613366 0.028253559 0.060298
0001f0 fa bb 26 3e b5 ca 4b 3e 1c e4 8a 3e eb 2a 48 3e
       0.16282645 0.19901545 0.2712716 0.19547622
000200 22 ee e4 bd a4 07 3c be b3 73 2f be f3 70 38 be
       -0.11178233 -0.1836229 -0.1713398 -0.18011837
000210 5f be bd bd 85 09 2a bd e0 52 37 bd c0 26 3b be
       -0.09264826 -0.041512985 -0.04475677 -0.182765
000220 dd ee ff 3d 5a 9c e3 3d 68 63 25 3d f8 cd 1f 3c
       0.124967314 0.11113806 0.040378004 0.009753697
000230 1f 36 c6 3d 43 03 11 3e bc 48 11 3e 93 8e 57 3e
       0.096782915 0.141614 0.14187902 0.21050481
000240 64 20 d1 3d 27 b5 b4 3d 48 45 bc 3d 93 20 39 bc
       0.10211256 0.088236146 0.09192902 -0.01129927
000250 eb 28 8d bd a2 06 e0 bd da b4 29 bd fb fb 45 bd
       -0.0689257 -0.10938765 -0.04143224 -0.04833601
000260 9d 6f fb 3a cf 9d 76 bd 3f c3 b2 bd 99 b0 d2 bd
       0.0019183044 -0.06020909 -0.087286465 -0.102875896
000270 44 01 39 be 85 98 46 be 0d 14 1d be 81 55 33 be
       -0.18066889 -0.19394119 -0.1533968 -0.17513086
000280 66 da 7d 3c 05 5b 3c 3c 8e 74 bc bb 96 6a 2e bd
       0.015493965 0.01149631 -0.005751199 -0.042582117
000290 03 af 62 3b c6 b8 2e 3b 91 2d d5 bc 3c f7 94 bd
       0.0034589178 0.0026660427 -0.026022704 -0.07273719
0002a0 ec 96 bd be 05 0f 45 be ab ca c5 bd 79 9f ae bd
       -0.37029207 -0.19244011 -0.096577965 -0.08526511
0002b0 6c 44 2b bd a6 21 26 ba 19 1c 36 bd d9 db 25 bd
       -0.0418133 -0.00063374115 -0.04446039 -0.040492866
0002c0 91 db e9 bc 7d aa fe bb 91 81 97 3c 1d ac 8d 3c
       -0.02854708 -0.0077717886 0.0184944 0.017293984
0002d0 e7 3a 44 bb 89 ad 7c bc 17 0a 0c bb 39 0b fc 3a
       -0.0029942335 -0.015422233 -0.0021368319 0.0019229419
0002e0 92 b9 27 be 57 18 4a bd c7 c3 f9 bc 4f b8 17 bd
       -0.16379383 -0.04933962 -0.030488862 -0.037041005
0002f0 46 ca e5 bd bc 52 84 bd a1 7b 83 bd 5d 49 fb bd
       -0.11220221 -0.06461093 -0.06420065 -0.12269852
000300 57 44 c3 3c cf fd 02 bd 83 bb a1 bd 25 fc b4 bd
       0.023836298 -0.031980332 -0.07897093 -0.08837155
000310 df 93 92 bd 70 b9 88 bd 91 9d 1b bd b8 07 d3 bd
       -0.071571104 -0.066759944 -0.037992064 -0.103042066
000320 f7 03 c9 3d 35 8f 9c 3d bf ce c6 3d 2b 2e d9 3d
       0.09815209 0.07644502 0.097074024 0.10604509
000330 20 09 1e 3d 17 c5 19 3d 5a bd 7f 3d af d9 19 3c
       0.03858292 0.037541475 0.06243644 0.009390279
000340 c2 19 54 3c 2f 54 b1 bc be 04 70 bc f2 49 3c bd
       0.012945594 -0.021646587 -0.014649568 -0.045968957
000350 40 71 73 bd c0 1d 97 bd 9b 3e d4 bd e5 29 a2 bd
       -0.059434175 -0.07378721 -0.103635035 -0.07918147
000360 bd 9e bc 3c 49 f1 0e 3d 3e 4a 9c bd 51 c8 25 be
       0.023024911 0.034898076 -0.07631348 -0.16189696
000370 52 c5 04 be 31 51 db bd 1a 17 d1 bd de e9 53 be
       -0.12965897 -0.107088454 -0.102094844 -0.20694682
000380 e8 27 5a 3c 3c c6 ab 3d ca 8a ea 3c fe e8 cd bb
       0.013315178 0.083874196 0.028630633 -0.0062838783
000390 cf 16 88 3c d3 8d b3 bb 2e 24 73 3b bc e7 a2 3c
       0.016612438 -0.0054795532 0.0037100422 0.01988589
0003a0 00 c4 55 3d fc 7d 45 3d 1a dc 31 3d f4 1a a6 3c
       0.052188873 0.04821585 0.043422796 0.020276524
0003b0 55 70 a3 bd 38 14 cf bd 33 0e 0a bd 3e c5 93 bd
       -0.0798041 -0.10111278 -0.033704948 -0.07215355
0003c0 7a 13 fe 3c 68 f0 db 3c da 6f e6 3c af 12 77 bd
       0.031015147 0.026848033 0.028129507 -0.060320552
0003d0 b0 84 31 bd 31 9f 68 bb 15 ae c9 bd 15 78 24 be
       -0.04333943 -0.0035495276 -0.09847657 -0.16061433
0003e0 d8 7f e0 3d 07 67 4d 3d 03 61 8b ba 05 1b e4 bd
       0.10961884 0.050147083 -0.001063377 -0.11137966
0003f0 0c 70 99 bd 1b 15 cd 3c 99 ac f1 bb ab 90 4d bd
       -0.07492074 0.025034478 -0.0073753116 -0.050186794

layer2.grid f4 [12]
000000 cd cc 0c c0 66 66 e6 bf 33 33 b3 bf 00 00 80 bf
       -2.2 -1.8 -1.4 -1.0
000010 9a 99 19 bf cc cc 4c be d0 cc 4c 3e 9a 99 19 3f
       -0.6 -0.19999999 0.20000005 0.6
000020 00 00 80 3f 34 33 b3 3f 66 66 e6 3f cd cc 0c 40
       1.0 1.4000001 1.8 2.2
