saved_models/KAN_FashionMNIST_checkpoint.pth (torch, 432901 bytes, 6 tensors)

layer1.base_weight f4 [15, 784]
000000 70 dd 83 bd 2a 0a 4d bd 9c a3 5b bd 30 a4 27 bd
       -0.0643872 -0.05005852 -0.053622827 -0.040928066
000010 98 25 2a 3d e1 93 5b bd f2 b9 26 3d 92 48 03 bd
       0.04153976 -0.053607825 0.040704675 -0.03205163
000020 ec d5 87 bd b3 86 a9 3d 8d 8d e6 3d 45 56 52 3d
       -0.06632599 0.08277645 0.112574674 0.051351804
000030 ad 28 20 ba 85 5e dd bd 9b 3d 3f bd 0e f8 18 3d
       -0.0006109577 -0.10809044 -0.04668961 0.03734594
000040 8d f9 eb 3c 3d 79 eb 3d d5 df 38 bd 6b 4c 89 3b
       0.028805519 0.11497734 -0.045135338 0.004190018
000050 37 50 cf bd 3a bc a5 bd a2 f5 55 bd 24 4e fd 3c
       -0.10122722 -0.08092542 -0.052236207 0.03092105
000060 6f f2 6f 3c b6 e2 9b bd 14 5b 7d bd 75 2c a3 3d
       0.014645203 -0.07611601 -0.061854437 0.07967464
000070 44 7d e1 bb da 5f 90 bd de ae d6 bc c6 fb 84 3d
       -0.006881388 -0.07049532 -0.02620643 0.064933345
000080 7b 78 7d 3d bc cd 4b 3d 89 78 5c 3d ab de 7f bc
       0.061882477 0.04975675 0.05382589 -0.015617053
000090 a1 26 ba 3d d2 c9 32 3d 2f d0 b3 3d 94 68 7d 3d
       0.09089399 0.043649502 0.08779942 0.06186731
0000a0 2a 3f 97 3c 0c 9d 7f bd cc d5 bd 3d 5d e9 c1 bd
       0.018462736 -0.06240563 0.09269294 -0.09468339
0000b0 cc cd 88 3c bb 4a 23 bd 15 15 f5 3d 35 75 b5 3d
       0.016699694 -0.03986619 0.11966912 0.08860246
0000c0 c1 89 ef bc ba 37 d6 bc 44 0f a9 bd 20 08 67 3c
       -0.02924049 -0.02614962 -0.08254865 0.014101058
0000d0 96 f2 13 bc 07 cd 83 bd f3 40 67 3d ac 7d ab bc
       -0.009030005 -0.0643559 0.056458425 -0.020933948
0000e0 92 ac 45 bc 01 96 22 bd 00 9c 02 3d 52 36 17 bd
       -0.01206507 -0.039693836 0.031887054 -0.03691704
0000f0 29 7f 9a 3a 7a 07 d8 ba c3 50 7f bd b7 c1 9a 3d
       0.0011787164 -0.001648172 -0.06233288 0.075564794
000100 bf db 97 3d a7 08 97 3d ee f2 a1 3c d2 30 15 bd
       0.0741496 0.07374697 0.019769158 -0.03642351
000110 f9 7b cc bd ea f2 f1 bd 0b 30 42 be 44 b8 29 be
       -0.099845834 -0.1181391 -0.1896364 -0.16574198
000120 1c 62 12 bc 2d c3 c7 3b c0 7e 0d bc 9b 19 e4 bc
       -0.008934524 0.006096265 -0.008636177 -0.02784424
000130 0f f5 84 3b c8 4c df 3d 71 ab f2 3d 1e 75 bc 3d
       0.0040575336 0.10903317 0.11849106 0.09202026
000140 62 48 93 3c df 1b b3 bc b0 e6 b4 bd e7 63 bc 3c
       0.01797885 -0.021863876 -0.08833063 0.022996856
000150 f6 6d 05 3d 69 5b 71 3c c7 30 a4 bb 70 67 83 3d
       0.03257557 0.014731267 -0.0050106975 0.064162135
000160 74 8a 47 bd 9b 84 3e 3d 9c ac 30 3d 54 aa b1 bc
       -0.048716024 0.04651318 0.043133363 -0.021687664
000170 ac d7 7b 3b f8 93 ce bd a6 5d 28 be a5 e3 e9 bd
       0.003842811 -0.100868165 -0.16441974 -0.11420373
000180 00 b6 dc bd 77 1b 5d be 94 4c 44 be 03 0e 61 bc
       -0.10776901 -0.21592508 -0.19169837 -0.013736251
000190 8d d9 ac bd 9b ba 7f 3d bd 8c 9c bd 67 27 e6 3d
       -0.08439932 0.06243382 -0.07644031 0.11237984
0001a0 69 3b c3 3d dd 5a dd 3d f0 9e f8 3d df f0 49 ba
       0.09532816 0.108083464 0.1213969 -0.0007703434
0001b0 be 3b bf 3a f0 69 8e 3d 3e 17 34 bd 1f b0 33 bd
       0.0014589948 0.069538 -0.043967478 -0.043869134
0001c0 3a 0b 85 3d a8 55 45 bc 98 75 54 3d 45 96 95 3d
       0.06496282 -0.012044348 0.05186996 0.07304052
0001d0 17 d7 85 bb c4 cb 10 3d ef 19 9e bd 4b 5e e9 bb
       -0.0040844786 0.035350576 -0.0771979 -0.0071218363
0001e0 f3 cd 79 bd ff 9e 2f be 8b 9f e1 bd 70 d5 23 be
       -0.060987424 -0.17150496 -0.110167585 -0.15999389
0001f0 93 fd e0 bd 55 87 07 be 94 0f 0f be b0 ae 65 3d
       -0.109858654 -0.13235219 -0.13970786 0.056074798
000200 f7 a4 b4 bd fc 99 a8 bd 0b e6 23 3c 41 ce 80 3c
       -0.08820527 -0.08232495 0.010003577 0.01572335
000210 a4 65 c2 bd ea ed 81 3d 57 7a 6c bb 66 b9 f0 3d
       -0.09492043 0.06344207 -0.0036083662 0.11754112
000220 c9 d5 8a 3c 9d 34 3d 3d 63 cc 16 bc 58 a7 a4 3d
       0.016947644 0.046192754 -0.009204003 0.08039731
000230 01 6d fe 3c 9d 2e 9f 3d 6a c0 92 3d 2d 74 ee bc
       0.031057836 0.07772563 0.07165606 -0.029108131
000240 0b f0 43 bd de 32 62 3c 7d e5 2d 3c aa 65 32 be
       -0.047836345 0.013806073 0.010613796 -0.17421594
000250 c3 98 b7 bd 7a 2d 5f bc e7 97 69 bd e1 cf df bd
       -0.08964684 -0.013621682 -0.05702963 -0.10928322
000260 fa a3 a7 bd ae 9d 7f 3b 37 9f a0 bd 75 30 83 bc
       -0.08185573 0.0039003897 -0.07842868 -0.016014317
000270 65 fa ab 3d 3d 55 75 bd 3d e3 5c bd 22 5a c8 bd
       0.08397368 -0.059895743 -0.05392765 -0.097828165
000280 a9 19 91 bd 1c 27 31 bb c8 bc c2 3d 4a c0 f3 3c
       -0.070849724 -0.0027031368 0.095086634 0.029754777
000290 84 9f 8b 3d e7 8d fe 3b e3 2f 31 3d 65 02 40 3d
       0.068175346 0.007768381 0.04325856 0.046877284
0002a0 1a 26 af 3b 49 eb fd 3b c8 99 3f 3d b4 91 cc bd
       0.005345118 0.0077489954 0.046777517 -0.09988728
0002b0 ff e6 d6 3c 94 98 86 3d 54 95 83 3c b9 1d b9 bd
       0.026233194 0.06572071 0.016062416 -0.09038872
0002c0 39 6d f1 bc ed 0e 9c bc 71 64 b8 bd ee ee 13 bc
       -0.029471027 -0.019050086 -0.09003533 -0.009029133
0002d0 ae 5e da 3b 1c c3 88 bd 86 fa 9f bd 5d c0 70 3d
       0.0066641187 -0.06677839 -0.078114554 0.058777202
0002e0 20 ca a8 3d b4 50 4d bc ad a2 70 3d ab 30 2f bc
       0.08241677 -0.012531448 0.05874889 -0.010692756
0002f0 ef 5a 1b bd b1 7b d4 bc 7b 8b ad 3c 1f 81 c8 3d
       -0.037928518 -0.025937887 0.021184674 0.09790253
000300 3b 81 20 3e fc 1e 65 3d 1a b3 99 bd 46 d1 a6 bd
       0.15674298 0.055937752 -0.07504864 -0.081453845
000310 c9 23 10 3d b6 7d 5f 3d 1f eb a6 bc 62 cb 25 3d
       0.035190377 0.054563247 -0.020375786 0.040477164
000320 af 5b 3a 3d c9 84 e0 bd 94 7c 71 bd b7 c7 20 bd
       0.045497593 -0.10962827 -0.058956698 -0.039252963
000330 82 1f fc bd 31 2b 84 bd 94 cc 11 bc 15 28 84 bd
       -0.12310697 -0.064535506 -0.008898873 -0.064529575
000340 f9 d3 e6 3d e0 fa dd 3d 87 85 a2 3d 8e c0 3b bc
       0.11270899 0.10838866 0.079356246 -0.011459483
000350 ba 32 65 bb 54 ef 34 3c 6b 84 81 bd 88 48 92 bd
       -0.0034972862 0.011043388 -0.06324085 -0.071427405
000360 0d f8 9b bd 47 0c 29 bd b3 d9 a3 bc ed 98 0a 3d
       -0.07615671 -0.041271474 -0.020001268 0.033837248
000370 dc 5f b6 3d 22 21 04 bd 45 0e 63 3d ab 62 ab bc
       0.089050025 -0.03225816 0.05543353 -0.020921072
000380 6f 19 2e bd 21 28 23 bb af fc 7f 3d 9b 8d c6 bd
       -0.042504724 -0.0024895745 0.062496837 -0.09694978
000390 ad cb 5f bc 90 8a f8 bd 2e 42 be bd 53 65 e7 bd
       -0.0136594 -0.12135804 -0.092899665 -0.11298623
0003a0 dc ac 37 bd 5b a4 25 bc 73 e7 8a 3d 65 d6 03 3c
       -0.044842586 -0.010109986 0.06782427 0.008046721
0003b0 c2 f0 e0 bb 3d 07 82 bd 88 b2 e8 3c 64 b3 e4 3d
       -0.006864638 -0.06349037 0.028405443 0.111670285
0003c0 d1 6d da bd b5 5f a9 3c dd 26 ed 3d 2b 3f c3 bc
       -0.10665477 0.02067552 0.11579678 -0.023833832
0003d0 55 d3 d5 bd f5 63 e5 bd 4d ca e9 bd 2e 67 07 bd
       -0.10440699 -0.11200706 -0.11415539 -0.033057384
0003e0 19 17 dc 3a bf 39 7f 3d cd f4 91 3d 83 e5 a1 bc
       0.0016791552 0.06231093 0.0712677 -0.01976276
0003f0 61 df ac 3c f7 47 19 bd bb 1b 44 3c 21 07 95 bc
       0.02110261 -0.037422147 0.011969502 -0.018191876

layer1.spline_weight f4 [15, 784, 8]
000000 ee 48 25 bc a1 20 2b ba 0d 68 1b 3c ca af 03 3d
       -0.010088189 -0.00065279944 0.009485257 0.032150067
000010 7c 19 d5 3c a4 9d 64 3c cb 38 ce bb 30 7a da 3b
       0.026013128 0.0139536 -0.0062933913 0.006667398
000020 96 7b 4f 3c 8a c9 9f ba 79 14 b7 3b 49 ba 5f bd
       0.0126637425 -0.0012190801 0.0055871573 -0.054621015
000030 72 5b 08 3c db 90 51 bb a3 9d 8e bb ee 46 33 3c
       0.0083225835 -0.003197721 -0.004352288 0.010942204
000040 4f fc b2 3c ec cb 12 3b d5 5e 80 b8 ba 8b c2 bd
       0.021848826 0.002239938 -6.1211795e-05 -0.09499307
000050 93 76 da bd 9d d4 a1 bd 6c c6 57 38 1b d4 cf 3b
       -0.106671475 -0.07901881 5.144479e-05 0.0063424236
000060 1e e9 f2 b9 f5 a7 df ba 53 e9 5e bc b0 98 f4 bd
       -0.00046331523 -0.0017063605 -0.0136054335 -0.11943185
000070 ab c5 e3 bd d9 94 ce bd bc 1b ab 3b c5 d6 59 bc
       -0.111216865 -0.10086984 0.005221812 -0.013295834
000080 91 a4 b2 3c fc 6e ff 3a 24 d7 6f bd 6d 34 d4 bd
       0.021806987 0.0019488032 -0.058554783 -0.10361562
000090 5c 9c bd 3d 67 69 30 3e 44 7e 4c 3e c4 10 f6 bb
       0.09258339 0.17227708 0.19970042 -0.007509323
0000a0 70 53 16 3d 5a ad 2a bb 8e ed 23 bd 71 5b a9 be
       0.036700666 -0.0026043267 -0.04002147 -0.33077577
0000b0 87 9a 52 be b3 e6 ae 3d c2 1e 17 bc dd 70 69 bd
       -0.2056676 0.08540096 -0.009223642 -0.0569924
0000c0 04 ae c0 3c e2 8c 86 3c 5e 0a 72 bd 15 43 c1 3d
       0.023520477 0.0164246 -0.05909192 0.09436623
0000d0 c0 e8 c4 bd 33 8c 78 be 55 3f 3f be da 3e e3 bd
       -0.09614706 -0.24272232 -0.18676503 -0.11095972
0000e0 7e 67 6d bb 42 42 43 bb b4 d4 4c 3c d8 b4 ee 3c
       -0.0036225016 -0.0029794131 0.012501884 0.029138967
0000f0 5f 1c 17 3e 04 59 74 3d 2b 6a 12 bd 09 46 d1 bd
       0.14756916 0.059655204 -0.03574578 -0.10218436
000100 ef e2 c5 bb 47 49 1f bc 10 91 de bc ea b7 55 3d
       -0.0060390155 -0.0097220605 -0.02716878 0.052177347
000110 ed 8b 0a 3d c1 1c 76 3c 87 13 80 3d 39 12 af 3d
       0.03382485 0.015021504 0.062537245 0.085483976
000120 1a a3 ec bb 4a f3 a8 bb d6 29 22 bb ea a7 d0 bd
       -0.0072215917 -0.0051559554 -0.0024744174 -0.10188277
000130 88 95 69 bd 43 7f 6a 3d 75 bd 14 3e 25 ba b3 bd
       -0.05702737 0.057250272 0.14525397 -0.087757386
000140 07 f8 14 bd 0c 3d 62 bd 26 18 3b 3d dc 76 c3 3d
       -0.03636935 -0.055234 0.045677327 0.09544155
000150 25 0f 1b 3e 13 f3 03 3e 1f 41 b6 3d 68 df f9 3d
       0.15142496 0.12885694 0.088991396 0.122008145
000160 1b 32 38 bd a9 8e 80 bd e9 a2 ad bc fa e6 92 3d
       -0.04496966 -0.0627721 -0.021195846 0.071729615
000170 39 c3 44 3e 82 4c 96 3e 88 51 a5 3e c9 d0 99 3e
       0.19215097 0.29355246 0.32288766 0.30042103
000180 be 4d c0 3d 37 07 44 3d b0 59 ee bd 5a 5b 21 be
       0.09389828 0.047858443 -0.116382 -0.15757504
000190 d7 bf a0 b9 66 68 98 3d c6 f5 90 3e 75 47 96 3e
       -0.0003066051 0.074417874 0.2831251 0.29351392
0001a0 f7 a2 1c 3e 88 f2 90 3d 0f ba 0f be ab 3b 51 be
       0.15296541 0.07077509 -0.1403582 -0.20432918
0001b0 7e 47 d0 bd aa 02 f8 3d 84 97 73 3c e6 95 05 be
       -0.10169886 0.12109883 0.014867667 -0.13045463
0001c0 fc 80 25 3e d1 43 89 3d a0 58 55 be c3 5d 00 be
       0.16162485 0.06702388 -0.20834589 -0.12535767
0001d0 bd 14 b3 bd 27 40 3d 3e 1a eb 11 3d 19 86 1b bd
       -0.0874419 0.18481503 0.0356246 -0.037969682
0001e0 5e 1a 16 3e b7 37 a1 3d 3f e6 19 be 84 08 df bd
       0.14658496 0.07871955 -0.15029238 -0.10890296
0001f0 26 d4 e8 bd 8d 42 8d bc 73 66 10 3e a8 54 20 3e
       -0.11368589 -0.017243648 0.14101581 0.15657294
000200 b9 0d d3 3d 40 02 25 3d 39 44 4e be e4 63 12 be
       0.10305352 0.04028535 -0.20143212 -0.14295918
000210 29 e9 26 3d 44 09 61 3e 44 21 d4 3d ec 4f 64 bc
       0.040749703 0.21976191 0.103579074 -0.0139350705
000220 4c 35 39 ba e2 2f ab bc 2e 33 08 bd 47 41 71 bc
       -0.0007065132 -0.020896856 -0.033251934 -0.014725036
000230 36 3f 99 3d d9 12 75 3e d3 6e 5d 3d 02 9d ef ba
       0.0748276 0.23932971 0.05406077 -0.0018281045
000240 b9 8b 0a bd f3 64 9c bc 81 e1 47 bd 72 f0 2f 3e
       -0.033824656 -0.019091105 -0.04879904 0.17181566
000250 6c 10 f4 3d 4c a3 f2 3d 3b 52 8b 3d f8 37 8d bc
       0.11917195 0.11847553 0.068027936 -0.017238602
000260 92 cf ca bc 5a f9 a3 bc 90 60 a0 bc 46 13 d0 3c
       -0.02475718 -0.020016361 -0.019577295 0.025399815
000270 f9 9a 98 3c 4c c8 1b 3e dc ea 5b 3e f7 1a 3c 3e
       0.018628584 0.15213126 0.2147631 0.18369661
000280 60 74 2a 3d 70 32 14 3d ec 2d 6d bc b6 2a 3a be
       0.04161489 0.036180913 -0.014476281 -0.18180355
000290 7a 48 9f be d7 19 e6 bc 14 a5 82 3d ab bc 10 3e
       -0.31109983 -0.028088493 0.063791424 0.14134471
0002a0 af b6 92 3d bb e0 27 3d 50 d5 a7 bd a2 fc c4 be
       0.071637504 0.040985804 -0.08194983 -0.38473994
0002b0 42 7a 3a be 47 ff 82 be c1 b7 bb bd 2d e7 00 bd
       -0.182107 -0.25585386 -0.09165908 -0.031470466
0002c0 e7 a0 3c 3d 00 69 06 3d 2b 2a b9 bd e7 8d 94 be
       0.046051886 0.03281498 -0.09041246 -0.29014513
0002d0 37 0d 84 bd 66 89 71 bd 23 7f 21 be c5 25 49 bd
       -0.06447833 -0.058968924 -0.15771155 -0.049108285
0002e0 31 7a ec 3c 19 30 e6 3b 8c 87 54 bd 57 41 9a 3c
       0.02886686 0.0070247767 -0.05188708 0.018829985
0002f0 21 49 cf 39 eb ba 8f bd 67 6d 19 be a7 85 07 be
       0.00039536602 -0.07018074 -0.1498314 -0.13234578
000300 67 2e 7f bc 45 40 01 3a c5 79 9e bc bd 3b 0d 3c
       -0.015575028 0.00049305364 -0.019345174 0.0086202
000310 f5 66 3f 3e 56 c9 28 3e 4e a8 da 3d f3 c5 90 3d
       0.18691619 0.16483054 0.10676633 0.07069006
000320 58 c8 65 3c 21 fe a3 bc 45 c6 9a bc e2 e3 bc bc
       0.014024816 -0.020018639 -0.01889337 -0.023057882
000330 e6 3c 02 3e 26 3a 89 3d 9f c0 57 3a d1 65 6c 3d
       0.12718543 0.06700544 0.0008230302 0.057714287
000340 0b 1f d7 bb a5 87 b8 3b a0 66 1c 3c 89 e4 ee 3b
       -0.00656498 0.0056314045 0.009545952 0.007290427
000350 a2 8b 85 3e cb 6c 42 3e 47 c4 50 3d 10 f4 e9 39
       0.26083094 0.18986814 0.050968435 0.00044623064
000360 8c 52 c4 3a 59 3e c2 3b de e7 63 ba 96 94 b3 bc
       0.0014978214 0.0059278426 -0.00086939137 -0.021921437
000370 a4 f2 8c bc c4 32 6b 3d e4 2b e1 3b 39 20 7e ba
       -0.017205544 0.05742146 0.0068716872 -0.00096941326
000380 4d f0 e3 bb 27 bd 8d 3b 94 ad 77 bc bc 71 39 bd
       -0.0069561363 0.004325527 -0.015117068 -0.04527448
000390 9b aa 88 bc 6b 3e 82 bc 52 04 83 3c 4a 2a 3a bb
       -0.016682914 -0.015898904 0.015993271 -0.0028406554
0003a0 e5 7d 67 3c 31 d6 e6 ba 3e c0 4b bc a7 23 ec bd
       0.014129137 -0.0017611441 -0.012435971 -0.11530238
0003b0 99 d1 3e 3d 4c 24 31 3d 63 96 9e bb 74 b2 22 bc
       0.046586607 0.043247506 -0.004839705 -0.009930242
0003c0 d0 39 34 3b 34 63 95 bc b5 1c b4 bc 3b 0a 42 be
       0.002750028 -0.01823578 -0.021986345 -0.18949215
0003d0 df c0 6f 3d a0 5b 76 bd f5 31 ee bd a9 0d 56 bd
       0.058533546 -0.060145974 -0.11630622 -0.05225912
0003e0 27 8a 2b 3c 01 48 13 3c a1 05 66 bc 75 3e 94 bd
       0.01046995 0.008989335 -0.014039428 -0.07238475
0003f0 77 fa c1 3d b3 6f 2a 3e e7 b9 0a 3e a0 15 96 3d
       0.094716005 0.16644172 0.13547479 0.073283434

layer1.grid f4 [12]
000000 cd cc 0c c0 66 66 e6 bf 33 33 b3 bf 00 00 80 bf
       -2.2 -1.8 -1.4 -1.0
000010 9a 99 19 bf cc cc 4c be d0 cc 4c 3e 9a 99 19 3f
       -0.6 -0.19999999 0.20000005 0.6
000020 00 00 80 3f 34 33 b3 3f 66 66 e6 3f cd cc 0c 40
       1.0 1.4000001 1.8 2.2

layer2.base_weight f4 [10, 15]
000000 cb 37 23 be 38 0a f0 3c da 97 f7 3e 70 ca 9c 3e
       -0.15939252 0.029301748 0.4835804 0.30623198
000010 c6 41 29 3f 08 a3 ac 3c 64 f2 d6 3d b8 70 de 3d
       0.6611599 0.021073833 0.10495451 0.10861343
000020 cb 06 a3 be 1c 95 29 bf a8 bb a6 be 8e f4 64 3e
       -0.3184112 -0.6624315 -0.32565045 0.22358915
000030 f6 97 17 be 66 d4 4f 3e ea 25 c9 be 7b e9 af be
       -0.14804062 0.20295867 -0.3928674 -0.3435782
000040 f0 05 30 3f f9 90 6c bf 23 d7 63 3e 2e d5 b2 bd
       0.6875906 -0.9240871 0.22250037 -0.08732067
000050 30 86 41 bf 96 25 95 be f6 a7 89 3e cb 80 07 3f
       -0.7559538 -0.29130238 0.26885957 0.529309
000060 c2 47 24 be d4 bf 75 3c 99 0e 07 3f 8a c3 3f bf
       -0.16042998 0.014999349 0.5275665 -0.74907744
000070 1d 7b 6e be 32 41 1b bf a6 9a 29 3f 46 64 c6 3e
       -0.23289151 -0.60646355 0.662516 0.38748378
000080 3c 30 d6 3e 3c 69 4d be 33 8b 82 be 4d 0b db 3e
       0.41833675 -0.20059675 -0.25496826 0.4278206
000090 88 71 df be 7b b1 ad bd ce 07 73 bf bb 07 38 3e
       -0.43641305 -0.08481117 -0.94933784 0.17971699
0000a0 fd 59 90 3e d0 04 74 3d a6 9e f5 be 66 5e c9 be
       0.28193656 0.059574902 -0.47972602 -0.39329833
0000b0 6e ca 2e bf b9 a8 09 bf 28 31 d5 be 74 a0 0b be
       -0.68277633 -0.53773075 -0.41639066 -0.13635427
0000c0 37 80 12 bf 52 be c0 bd e3 56 14 3f 09 73 a6 3e
       -0.5722689 -0.09411301 0.5794508 0.3250964
0000d0 fc ee e1 3e 44 96 9a 3e 15 b3 10 3e 36 d9 86 be
       0.44127643 0.3019277 0.14130814 -0.26337594
0000e0 6e 90 1f bf 45 44 cc be a1 72 0f 3e a9 93 1a bf
       -0.6232976 -0.39895836 0.14008571 -0.6038156
0000f0 1a b2 d8 be 49 c6 6e be ad 45 64 bd a0 24 6d bf
       -0.4232338 -0.23317827 -0.05573051 -0.9263401
000100 1f 5a a5 be 68 0c 58 3e fc 27 db 3d c7 4a bf be
       -0.3229532 0.21098483 0.10700986 -0.37361738
000110 12 e2 a2 be c9 96 ea be f6 01 c7 3e 99 1b cd bd
       -0.31813103 -0.45818165 0.38868684 -0.100150295
000120 11 c3 f6 3e 9a 31 43 bd 7b 61 06 be e2 cb 50 3f
       0.481957 -0.047654726 -0.13123123 0.815611
000130 29 f5 82 be c6 70 26 bf ef 8b d6 be c9 09 a5 be
       -0.25577667 -0.6501583 -0.41903636 -0.32234028
000140 03 a4 5e bf 7b 7d bd 3e 14 d2 09 bf b8 0e f1 3d
       -0.8696901 0.37009797 -0.5383618 0.117703855
000150 ec 21 d4 3e 4a d5 63 be 90 4e e3 3d ea c1 1c bf
       0.4143213 -0.22249332 0.11098969 -0.6123339
000160 fe 4f e4 be a8 69 98 3e 2a c0 f5 bd 67 76 a8 be
       -0.4459228 0.2976811 -0.11999543 -0.32902834
000170 e3 1f 45 3e 81 14 0f 3f a9 0c d6 be 73 c7 be 3e
       0.19250445 0.5589066 -0.41806534 0.37261543
000180 94 0d 15 3f 4a 6b 9c 3e 2f fe 4a 3e 7f ec 11 bf
       0.58223844 0.30550605 0.19823526 -0.5700149
000190 3f 43 54 3e c2 d0 0b 3f 74 0a 8e be 22 ba d9 be
       0.20728777 0.54615414 -0.2774235 -0.4252482
0001a0 71 6e 27 be 9a 42 14 ba 0b a8 3c 3e 9a 00 5f 3e
       -0.16350724 -0.00056556764 0.18423478 0.21777573
0001b0 c6 de 3b be 12 73 25 3f 35 d4 f0 3c 90 0d c5 be
       -0.183467 0.6462871 0.029398063 -0.3848691
0001c0 ff 7b ee 3e a5 ed 24 3f aa ae fd be 06 ee c4 be
       0.46578977 0.64425117 -0.4954732 -0.38462847
0001d0 e0 f1 fd be 72 6c 0d 3f 51 2a 44 bf 5f 37 98 3e
       -0.49598598 0.552436 -0.7662707 0.29729745
0001e0 49 2e b8 be 05 5b 62 bf 73 22 8c 3e 9e 11 04 be
       -0.35972813 -0.88420135 0.27370033 -0.12897345
0001f0 27 27 62 bf e5 0a 8c 3e 29 6e 09 bf 03 1f 63 bf
       -0.8834099 0.27352062 -0.53683716 -0.88719195
000200 64 94 c1 3e c2 6d b6 3e 23 fd ef be 3b 60 e8 3e
       0.37808526 0.35630614 -0.46872815 0.45385918
000210 3b 93 1e 3e 6c a3 1e 3e f4 c0 20 bf 67 9a 5d bf
       0.15485851 0.15492028 -0.62794423 -0.86563724
000220 d8 41 cc 3e 9d af 20 bf 7f a8 6f 3e ca 97 2f 3e
       0.39893985 -0.62767965 0.2340412 0.17147747
000230 9b 7b b0 be a7 96 b8 be 40 fb 04 bf af fb 36 bf
       -0.34469303 -0.3605244 -0.5194588 -0.7147779
000240 42 72 19 be 71 72 73 be 0b 47 20 bf 99 04 b3 3e
       -0.14984992 -0.23774125 -0.626084 0.34964445
000250 22 1a 82 be f2 e8 cd 3e
       -0.25410563 0.40216786

layer2.spline_weight f4 [10, 15, 8]
000000 db c0 7c bc 46 3c d4 3c 42 81 db bc f3 58 cd bc
       -0.01542684 0.025907647 -0.026795033 -0.025066828
000010 99 32 32 bd 95 08 27 bc f8 e7 30 3d ae 9c 86 3d
       -0.043505285 -0.010194917 0.043189973 0.06572853
000020 f4 9d df 3d 63 d9 2d bc 31 38 e3 bd c6 df be bd
       0.10918799 -0.010610911 -0.11094702 -0.09320025
000030 4b 7a b0 bd 0f b2 86 bd 4e ed be bd 1b f5 a0 bd
       -0.086170755 -0.06576931 -0.09322606 -0.0785925
000040 93 4d a1 be 7c 53 37 be 1e eb 27 bd 04 9f c4 bd
       -0.31504497 -0.1790294 -0.04099571 -0.09600642
000050 36 a0 03 be cc f2 53 be b8 6d 87 be 80 a9 a3 be
       -0.12854084 -0.20698088 -0.26450896 -0.31965256
000060 97 5c ee be 7b 20 96 be aa 6d 6d be 9a e6 10 be
       -0.46555015 -0.29321656 -0.23186365 -0.14150468
000070 3a e4 59 bd 8a 8b c6 bc 85 64 a3 3d d5 c0 af 3d
       -0.05319617 -0.02423646 0.07978157 0.08581702
000080 e9 26 47 be cd 0a 62 be 8c a3 18 be 6b 77 e6 bd
       -0.19448437 -0.22074433 -0.14906138 -0.11253246
000090 f8 ed 4a be 7a 04 38 be 50 21 f9 bd d3 f8 9d bd
       -0.1981734 -0.17970458 -0.12164557 -0.07713475
0000a0 8f 05 da bc f9 c7 f2 bd e0 c8 2c be 47 ba 6e be
       -0.026613979 -0.11854548 -0.16873503 -0.23313247
0000b0 1d cc 6f be 36 18 5a be 66 07 47 be 60 7c 1d be
       -0.23417707 -0.21298298 -0.19436416 -0.15379477
0000c0 0a 9a 6d bd 87 dc 79 bd 39 25 da bd cd ae df bd
       -0.05800823 -0.061001327 -0.10651631 -0.109220125
0000d0 68 3b db bd 64 b8 55 be 36 06 e6 bd a7 bd d8 bd
       -0.1070469 -0.2087112 -0.112316534 -0.10583048
0000e0 04 e9 00 3e 2b 54 94 3d 76 84 5b 3c ab 20 65 3d
       0.12588888 0.07242616 0.01339828 0.055939358
0000f0 b2 a5 da bc f4 0c 59 bd 4e ce ad bc d8 ff 11 be
       -0.026690338 -0.05299087 -0.021216538 -0.14257753
000100 c6 2e 7d bd 54 89 a6 3d c7 a0 f2 3d 06 6e 05 3e
       -0.061812185 0.08131662 0.11847072 0.13030252
000110 28 34 a0 3d 77 bf cf 3c 44 0c 82 bd c8 fb 43 bd
       0.07822448 0.025359852 -0.06349996 -0.04784754
000120 74 83 0a be 1f 18 02 bd cd 4e 70 ba e6 06 9c 3d
       -0.13526708 -0.031761285 -0.00091670157 0.07618503
000130 41 0f 7e 3d bc 10 4b 3d d4 b4 77 3d c8 ac de 3c
       0.062026266 0.049576506 0.060475186 0.027181998
000140 60 45 47 3d 5b 6b 8d bd 1d c2 f5 bc cd 9d 1a bd
       0.048650146 -0.06905242 -0.029999787 -0.037748147
000150 2a 20 66 bd 91 9b 05 bd 57 5c 83 3d f1 49 b6 bc
       -0.056183018 -0.032619063 0.06414097 -0.022252055
000160 0c df 6b be 7c 5a 37 be f2 5a 63 be ed 07 7d be
       -0.23034304 -0.17905611 -0.22202662 -0.24710055
000170 63 fd 94 be 9e e5 48 be c7 e0 0f be 91 c6 37 bd
       -0.2909957 -0.19618842 -0.1405059 -0.044867102
000180 b6 1c a9 bd d9 06 ce bc ed 3b bc bc 75 04 9a bd
       -0.08257429 -0.02514975 -0.022977794 -0.07520381
000190 0b b3 8f bd 2f d5 17 be 9c c5 e8 bd df 69 94 bc
       -0.070165716 -0.14827417 -0.11365816 -0.01811689
0001a0 e4 b5 93 bc af 30 4c bc 21 30 27 bc 14 68 57 3c
       -0.018031068 -0.012462779 -0.010204346 0.013147373
0001b0 37 70 11 bc 4f 60 e0 bc 90 78 f1 39 79 0e 07 3c
       -0.008876852 -0.027389674 0.00046056928 0.008243197
0001c0 6b 53 2f bc 43 d2 ae bd d5 d5 d4 bd 34 aa 04 be
       -0.010701041 -0.08536198 -0.10392348 -0.12955552
0001d0 f7 68 cc bd c6 77 bd bd 28 f1 34 be d6 a5 2e be
       -0.09980958 -0.092513606 -0.17670119 -0.17055449
0001e0 f3 c2 ce bc 8b ac 0d 3c 7b ec 76 3d bb 97 21 3e
       -0.025239443 0.0086470945 0.06028412 0.15780537
0001f0 9e 8e fc 3d e3 f5 ee 3d 37 fc 45 3d e2 1d 3e 38
       0.123318896 0.11667993 0.048336234 4.532736e-05
000200 3a 13 ec 3d 07 e3 9a 3d 30 c4 ef 3d 1c ea 04 3e
       0.11527105 0.07562833 0.11707342 0.1297993
000210 83 0f de 3d 41 44 27 3e 4e 71 5f 3d 9c 17 94 bc
       0.108428024 0.1633463 0.054551415 -0.018077664
000220 86 88 b7 3d 2e d4 16 3e 62 f3 1a 3e 0a 2c 0b 3e
       0.08961587 0.14729378 0.15131906 0.13591018
000230 27 9f 19 3e 5e 39 dd 3c 90 df 95 3d 83 d2 fa 3d
       0.15002118 0.027004894 0.07318032 0.12247183
000240 c5 88 b9 bd 4f 0e bf bd ae a6 a0 bc 81 53 37 bb
       -0.0905929 -0.09328901 -0.019610729 -0.0027973356
000250 28 57 81 3d c3 08 8f 3d 77 c7 8a 3d 00 81 f5 3d
       0.06315452 0.06984093 0.06776326 0.119874954
000260 59 5a 2c 3d b3 a1 db 3d e2 28 56 3d c7 50 0c 3d
       0.04207835 0.10724201 0.052285083 0.034256723
000270 90 d0 b8 3d 29 29 d5 3d da 33 2e 3e 01 b0 fc 3d
       0.09024155 0.10408241 0.17011967 0.123382576
000280 46 de c6 3d 27 1c 6b 3e 7f 8e 7e 3e df 53 8a 3e
       0.09710364 0.22959958 0.24859045 0.27017114
000290 a8 cf 93 3e af 11 8c 3e c1 92 81 3e 5c 84 69 3e
       0.28869367 0.27357242 0.25307277 0.22804397
0002a0 47 bc 45 3d ac 2b f3 3d 6c db 23 3e 04 11 36 3e
       0.04827526 0.11873564 0.16001672 0.17779928
0002b0 d0 c6 68 3e 95 22 ec 3d c1 bd c7 3d 23 8e e9 3d
       0.22732091 0.115300335 0.097529896 0.114040636
0002c0 e0 33 96 bd ef a3 30 bd 8c b4 6c bd fa bd b1 bd
       -0.07334113 -0.04312509 -0.05778937 -0.08678813
0002d0 49 b7 05 bd 4a 64 22 3d 7f 4f a7 3d aa ab 2e 3b
       -0.032645497 0.039646424 0.081694596 0.0026652613
0002e0 be dc 62 bd ee f7 85 3d c0 be 42 3d db 85 e8 bd
       -0.055386297 0.065414295 0.047545195 -0.11353656
0002f0 20 1c f2 bc ed 66 75 bd 28 3e a5 3d bb 97 2b 3d
       -0.029554427 -0.05991261 0.08068496 0.04189275
000300 67 e7 b6 3d 9e 64 7e 3d e9 59 ce bc e6 fa 34 3d
       0.08930855 0.062107675 -0.025189357 0.044184588
000310 ae d4 ce 3d f2 34 02 3d 62 2d cd 3d 70 14 f4 3d
       0.10099159 0.031788774 0.10018422 0.11917961
000320 0e 4d 06 3e a2 2c 03 3e b7 fc a0 3d dc db de 3d
       0.13115332 0.12809995 0.078607015 0.108817786
000330 56 dd 03 3d ec 24 14 3d 49 2e 22 3d 1d 56 bb 3d
       0.032193504 0.036168024 0.039594922 0.09147284
000340 d4 36 11 3c 84 6b aa 3d cf f6 f8 3d 1a 7b 7b 3e
       0.00886317 0.08321288 0.1215645 0.24558678
000350 d5 c2 86 3e 10 bd 81 3e 24 d8 14 3e 59 f9 10 3e
       0.2632052 0.25339556 0.14535576 0.14157619
000360 18 e3 99 3e 90 c6 8e 3e 58 e2 f2 3d 6e 22 b6 3d
       0.3005607 0.27885866 0.11859578 0.08893286
000370 8a ff b6 3c 75 1d 19 bd ac 1b 76 bd ee c5 4d be
       0.022338647 -0.037381608 -0.060084984 -0.20095035
000380 57 e9 bb 3c b2 4c c3 bb 4b 25 54 bb 97 64 cf ba
       0.022938414 -0.0059600705 -0.003237086 -0.0015822825
000390 66 f1 b3 bc 7f 29 1f ba ed 35 52 bc f0 12 9e 3a
       -0.021965694 -0.0006071552 -0.01283024 0.0012060087
0003a0 67 e8 30 bc f7 40 49 3c 22 c0 cb 3c 04 2a 9f bb
       -0.010797597 0.012283555 0.02487189 -0.0048573036
0003b0 a2 00 a8 bd 09 ce 85 bd e2 2d ae bd e2 94 36 bd
       -0.08203246 -0.06533439 -0.08504845 -0.04457558
0003c0 06 d1 ae bc 0b ce 87 3c 26 4a 5b 3c a3 6e ec ba
       -0.021339905 0.016577741 0.013384378 -0.0018038343
0003d0 39 2c 3c 3d 4c 55 ce bd 7b e5 06 be 2c 35 4d bd
       0.04594061 -0.10074863 -0.13173477 -0.050099537
0003e0 fc 37 74 bc 61 f2 31 bd 05 82 93 3c d8 09 16 3e
       -0.014905926 -0.04344404 0.018006334 0.14652193
0003f0 8c 04 e5 3d ad f0 1f 3d 7d 0f d1 bc 26 a9 20 3c
       0.11182508 0.039047886 -0.02552008 0.009805953

layer2.grid f4 [12]
000000 cd cc 0c c0 66 66 e6 bf 33 33 b3 bf 00 00 80 bf
       -2.2 -1.8 -1.4 -1.0
000010 9a 99 19 bf cc cc 4c be d0 cc 4c 3e 9a 99 19 3f
       -0.6 -0.19999999 0.20000005 0.6
000020 00 00 80 3f 34 33 b3 3f 66 66 e6 3f cd cc 0c 40
       1.0 1.4000001 1.8 2.2
