saved_models/MLP_MNIST_checkpoint.pth (torch, 441393 bytes, 6 tensors)

fc1.weight f4 [128, 784]
-0.0026184628 0.014580346 -0.005660581 0.024326809 0.02791394 0.008010755 -0.007035946 -0.0016932451
-0.00993419 0.028216345 -0.02969067 -0.035053536 0.017430507 0.030194785 0.0021859799 -0.024162462
-0.03020833 0.031224499 -0.012127587 -0.0023345954 -0.0147816455 -0.007860406 -0.022708347 0.028454157
0.014251422 -0.0014267275 -0.029189754 -0.024830865 -0.03099786 0.02721931 0.021309873 0.013924322
-0.024153858 -0.015504002 -0.012326249 0.008396434 0.009687195 -0.032167144 -0.0033501603 0.013258527
0.020229777 0.03178362 -0.02358992 0.011711024 0.03165072 0.000993869 0.031292528 -0.0027217485
0.00015999869 -0.02650404 0.01977247 0.01577351 -0.010651064 -0.016965784 0.0019107568 -0.009527328
0.021495592 0.01472212 -0.014476441 0.012861606 -0.037467893 0.023826998 -0.018779919 0.0032507472
-0.011480537 -0.0394538 -0.029749326 0.011545141 -0.04580096 0.00877553 -0.018863397 0.018313868
-0.03923468 -0.046780895 -0.012684562 0.0014086114 0.007909629 -0.03577632 0.028266277 -0.008818671
-0.019547736 -0.0040580737 -0.010022496 0.007717497 -0.022151774 0.023718007 -0.014317885 -0.021967992
-0.017571023 0.029608367 -0.013179886 0.00755819 -0.013733082 -0.03749248 -0.038209274 -0.012975778
0.03249252 0.05104212 -0.015920112 0.022888895 0.0047590365 -0.024786385 -0.03247996 -0.00801869
0.009975874 0.002692056 -0.033061534 -0.01067061 0.012737588 -0.020982057 -0.01568991 0.032511532
-0.03150615 -0.0045391913 0.028997686 -0.026941579 0.0045972145 0.010354201 -0.00731816 0.015541453
0.06592464 0.018581051 0.041442763 0.03964335 0.0480997 0.060133398 -0.038800966 -0.015262475
-0.026444815 -0.1191451 -0.03849376 -0.04485724 -0.06197517 -0.035680834 -0.010189893 -0.005874466
0.024919022 -0.027041249 0.016202005 0.00637788 0.012015639 0.0012583545 -0.023396851 -0.019777235
-0.018654704 0.017230643 0.08954117 0.06773348 0.050603062 0.04739033 0.050077856 -0.0054961215
-0.029672809 0.027699219 -0.018633597 -0.093290895 -0.11606435 -0.16730818 -0.15794347 -0.0857087
-0.08467011 -0.09811066 -0.03605611 -0.032166112 -0.02332731 -0.022743471 -0.034034934 -0.02180939
0.013660412 0.003001977 0.03270324 0.0022241464 0.0069014495 0.0249383 0.019187644 0.059310626
0.05895094 0.03588232 0.07161534 0.07813102 0.05551878 0.04229055 0.05158126 0.009199536
-0.033974204 -0.1241908 -0.0394607 -0.072187595 -0.02158061 -0.010294265 -0.0008923842 -0.040469084
-0.014147059 0.0009342815 -0.03105431 -0.036130086 0.02221617 0.014499986 0.01700819 0.028757906
0.031987004 0.024397401 0.10848855 0.13900778 0.14203925 0.11570946 0.14017573 0.04295592
0.031583276 -0.00530268 0.043121345 -0.059925564 0.02626364 -0.006336894 0.0715518 0.010578167
-0.015863745 -0.0401498 -0.015781721 -0.01791716 -0.011099743 -0.018090092 0.027518783 0.029919678
-0.0012371955 -0.018892145 0.015130753 0.048162676 0.046042897 0.052508015 0.060671028 0.11114973
0.12062527 0.10952692 0.087317094 0.07045327 0.17146526 0.21268871 0.19920404 0.077259794
-0.080159545 -0.09615239 -0.034103032 0.021019282 0.036501795 -0.0042784843 0.06630469 0.0225908
0.027171182 -0.009677309 0.030276805 0.026517363 -0.03499132 -0.02864514 0.022460734 0.071229935
00000000: 849a 2bbb 67e2 6e3c 657c b9bb 0449 c73c
00000010: c6ab e43c 8b3f 033c cb8d e6bb e1ef ddba
00000020: 03c3 22bc f725 e73c d939 f3bc 4c94 0fbd
00000030: 6cca 8e3c 0e5b f73c a842 0f3b 5bf0 c5bc
00000040: 7677 f7bc 85ca ff3c c9b2 46bc 0300 19bb
00000050: b72e 72bc efc8 00bc db06 babc b118 e93c
00000060: cc7e 693c 0801 bbba 5a1f efbc 196a cbbc
00000070: 39ef fdbc 08fb de3c 0b92 ae3c d722 643c
00000080: 50de c5bc 7f04 7ebc 09f4 49bc 3291 093c
00000090: 0ab7 1e3c b2c1 03bd 5d8e 5bbb 4b3a 593c
000000a0: ebb8 a53c 8b2f 023d a63f c1bc 98df 3f3c
000000b0: 2fa4 013d b644 823a 982c 003d 5d5f 32bb
000000c0: 52c5 2739 001f d9bc e0f9 a13c 7337 813c
000000d0: cd81 2ebc d4fb 8abc 5c72 fa3a 8318 1cbc
000000e0: 8617 b03c 0c35 713c 982e 6dbc 7cb9 523c
000000f0: ef77 19bd d630 c33c 58d8 99bc 7d0a 553b
00000100: dd18 3cbc 4f9a 21bd dcb4 f3bc d527 3d3c
00000110: ca99 3bbd 3ec7 0f3c 6987 9abc f706 963c
00000120: 8bb4 20bd 539d 3fbd e9d2 4fbc 28a1 b83a
00000130: 6397 013c 318a 12bd ae8e e73c 307c 10bc
00000140: 9322 a0bc 97f9 84bb 6535 24bc 0fe3 fc3b
00000150: a377 b5bc 444c c23c 9095 6abc 38f6 b3bc
00000160: 1bf1 8fbc 3f8d f23c 73f0 57bc b1aa f73b
00000170: b900 61bc b791 19bd 5481 1cbd 5c98 54bc
00000180: e016 053d 8b11 513d e56a 82bc 7e81 bb3c
00000190: b1f1 9b3b d10c cbbc b509 05bd d360 03bc
000001a0: d971 233c 346d 303b 886b 07bd c8d3 2ebc
000001b0: 51b1 503c 90e2 abbc 2088 80bc d02a 053d
000001c0: 980c 01bd 7fbd 94bb 8e8c ed3c 96b4 dcbc
000001d0: 3ba4 963b aba4 293c 2dcd efbb 94a1 7e3c
000001e0: 7f03 873d 4a37 983c e3bf 293d 1161 223d
000001f0: 3104 453d 704e 763d c3ed 1ebd 760f 7abc
00000200: cca2 d8bc 5902 f4bd a2ab 1dbd 3abc 37bd
00000210: add9 7dbd 1126 12bd 82f3 26bc 987e c0bb
00000220: fa22 cc3c 9c85 ddbc 11ba 843c 89fd d03b
00000230: 3edd 443c 5fef a43a c1aa bfbc de03 a2bc
00000240: c0d1 98bc 4727 8d3c 5c61 b73d dab7 8a3d
00000250: 2845 4f3d 5d1c 423d 701e 4d3d cf18 b4bb
00000260: 6414 f3bc 79e9 e23c 7ca5 98bc 4c0f bfbd
00000270: 25b3 edbd d652 2bbe efbb 21be 0b88 afbd
00000280: 8667 adbd 3eee c8bd 92af 13bd 9dc0 03bd
00000290: ea18 bfbc 8450 babc 3768 0bbd 9ba9 b2bc
000002a0: eccf 5f3c d1bc 443b d5f3 053d fcc2 113b
000002b0: 8e25 e23b 684b cc3c 682f 9d3c b3ef 723d
000002c0: 8a76 713d 57f9 123d 10ab 923d 2803 a03d
000002d0: a967 633d db38 2d3d df46 533d a7b9 163c
000002e0: 8928 0bbd bf57 febd 8ba1 21bd 17d7 93bd
000002f0: d2c9 b0bc 47a9 28bc e4ee 69ba e9c2 25bd
00000300: 11c9 67bc 92ea 743a 9c65 febc 24fd 13bd
00000310: affe b53c 5991 6d3c c254 8b3c b395 eb3c
00000320: ce04 033d 0fdd c73c 3f2f de3d 0e58 0e3e
00000330: bd72 113e 15f9 ec3d 3a8a 0f3e 8cf2 2f3d
00000340: 775d 013d 1bc2 adbb 02a0 303d 8274 75bd
00000350: d826 d73c b8a5 cfbb c089 923d 0c50 2d3c
00000360: aff4 81bc 1e74 24bd ab48 81bc 02c7 92bc
00000370: b2db 35bc ac31 94bc 126f e13c 1d1a f53c
00000380: 6429 a2ba b3c3 9abc fae6 773c 3a46 453d
00000390: 7a97 3c3d a512 573d 2f82 783d 78a2 e33d
000003a0: 620a f73d a64f e03d 4ed3 b23d ce49 903d
000003b0: 9794 2f3e 12cb 593e 25fc 4b3e 623a 9e3d
000003c0: b02a a4bd 8beb c4bd 9faf 0bbd a130 ac3c
000003d0: e882 153d 8732 8cbb c1ca 873d 5710 b93c
000003e0: 1996 de3c 938d 1ebc 1007 f83c f13a d93c
000003f0: 0f53 0fbd 36a9 eabc 93ff b73c 00e1 913d

fc1.bias f4 [128]
0.0006933216 0.004335761 -0.03619988 -0.013391673 -0.014797638 -0.023890855 0.016414665 -0.014677369
-0.038894765 0.032526184 -0.03992425 0.0018580209 0.0038441226 0.008567834 0.004798556 0.02671912
-0.013471058 0.03382461 -0.0090212915 -7.362438e-05 -0.05100972 -0.0030723175 0.012406341 -0.011513548
-0.040652078 -0.035709172 0.0074581853 0.004673762 -0.0044489237 0.006214228 0.01914482 -0.0038139333
0.037889417 -0.0014227019 -0.010815628 0.004583612 -0.03597491 -0.026167894 -0.0058475886 0.018108815
0.010068151 0.006727425 -0.00022574537 0.016570432 0.029988982 0.01408438 0.006030877 0.019384947
-0.03173433 0.01682609 -2.2486287e-05 -0.03902862 0.04879404 -0.02303109 -0.023585012 -0.025228579
-0.01951153 0.039751366 0.022762844 0.028503718 -0.0032854502 0.029657103 -0.03338964 -0.013704971
-0.008378642 -0.012623566 0.030850325 -0.023527507 -0.017115919 -0.024416229 0.030196344 0.0040819794
-0.01594164 0.038040638 0.033118922 0.010519043 -0.03629563 0.0014362488 0.030405335 0.008722592
-0.0029035471 0.012875848 -0.021461861 0.009046295 -0.031808823 0.003961165 -0.0025946002 0.0075117243
0.007808619 -0.021525275 -0.028443564 -0.01717265 -0.025905231 0.019057415 -0.023125794 0.007596124
0.026161412 -0.007143148 -0.023998281 -0.0072898315 -0.019030381 -0.03025948 0.007938308 0.03401767
-0.03898675 -0.030857172 -0.016011693 -0.026276797 0.023539195 -0.0282596 0.0033712778 -0.009605479
0.006343365 0.0058041513 -0.03639276 0.027672123 0.02004342 -0.011083618 0.014182939 -0.034485683
-0.03931782 0.008831382 -0.0055590346 -0.023713905 0.0014830099 0.006930651 0.015553803 -0.0039120014
00000000: 06c0 353a 0013 8e3b 5346 14bd bf68 5bbc
00000010: cb71 72bc c1b6 c3bc 0c78 863c 5979 70bc
00000020: 1e50 1fbd 2d3a 053d 9c87 23bd d688 f33a
00000030: aded 7b3b 1a60 0c3c 353d 9d3b 0ee2 da3c
00000040: b6b5 5cbc ad8b 0a3d 0ace 13bc ca66 9ab8
00000050: 91ef 50bd ef58 49bb f743 4b3c 52a3 3cbc
00000060: cb82 26bd c843 12bd cb63 f43b 5b26 993b
00000070: 47c8 91bb b9a0 cb3b 99d5 9c3c 2ff3 79bb
00000080: ef31 1b3d f479 baba 0834 31bc 2032 963b
00000090: 6d5a 13bd 0d5e d6bc 219d bfbb f058 943c
000000a0: e3f4 243c bb71 dc3b 10b6 6cb9 b7be 873c
000000b0: 74ab f53c 2cc2 663c aa9e c53b 2ecd 9e3c
000000c0: dbfb 01bd ded6 893c efa0 bcb7 79dc 1fbd
000000d0: 42dc 473d b2ab bcbc 5b35 c1bc 2aac cebc
000000e0: a5d6 9fbc 54d2 223d 2579 ba3c a180 e93c
000000f0: b550 57bb 74f3 f23c 93c3 08bd d18a 60bc
00000100: 9246 09bc 13d3 4ebc d2b9 fc3c c2bc c0bc
00000110: af36 8cbc 8b04 c8bc 535e f73c 20c2 853b
00000120: 0b98 82bc 80d0 1b3d b5a7 073d 1058 2c3c
00000130: baaa 14bd 8340 bc3a 9c14 f93c 34e9 0e3c
00000140: 7049 3ebb 39f5 523c c9d0 afbc e936 143c
00000150: f849 02bd a9cc 813b 2b0a 2abb e924 f63b
00000160: 72df ff3b c655 b0bc 7a02 e9bc a8ad 8cbc
00000170: 3537 d4bc 4c1e 9c3c 4e72 bdbc e8e8 f83b
00000180: 7550 d63c 1211 eabb 0b98 c4bc 8adf eebb
00000190: 9ae5 9bbc bbe2 f7bc ad0f 023c 1d56 0b3d
000001a0: 92b0 1fbd 2ec8 fcbc f42a 83bc 7042 d7bc
000001b0: 45d5 c03c ad80 e7bc a8f0 5c3b 4d60 1dbc
000001c0: 01dc cf3b c030 be3b 9310 15bd a6b0 e23c
000001d0: 1932 a43c 1098 35bc 8f5f 683c dc40 0dbd
000001e0: b90b 21bd 80b1 103c 9028 b6bb aa43 c2bc
000001f0: 8e61 c23a 841a e33b 61d5 7e3c 3f30 80bb

fc2.weight f4 [64, 128]
0.0805469 -0.016469765 0.122818634 -0.13617593 -0.026792629 -0.20257251 -0.017602857 0.065620504
-0.05380198 -0.00566612 0.04845305 -0.17790481 -0.2071194 0.16660249 -0.038791846 -0.0011673939
0.07121361 0.031447098 0.15527344 -0.051253274 0.07713248 0.10906741 -0.15187527 -0.019222172
-0.07166026 0.07175372 -0.070628956 -0.006346432 -0.19831346 -0.1005125 -0.038865473 0.06183444
0.07818422 -0.40112385 -0.07274419 -0.07488559 -0.011146877 0.04881909 0.08141419 0.115028255
0.08267929 0.0064960304 -0.11215592 0.061119534 -0.098774776 0.0067207087 0.13867117 -0.014392245
0.0008957438 0.054641556 0.06396967 0.1336587 0.005194243 -0.062493887 0.053237293 0.25016677
-0.21324335 -0.037842125 -0.011615276 -0.10439398 0.031895094 0.05122289 0.08215958 0.1653311
-0.15807891 0.17363386 0.16497804 0.20748624 0.0749793 -6.804326e-05 0.061834622 -0.055801507
0.11237163 -0.26252472 0.15323085 0.07774163 -0.06837852 -0.02548835 0.088477805 -0.23205602
-0.07186003 0.025234533 0.04210752 0.08281246 0.18163283 -0.0659215 0.033723485 -0.3961238
-0.012055855 -0.21417713 -0.035661332 -0.27865252 0.0389833 -0.13678232 0.046566714 0.09037352
0.00026597822 -0.109433934 -0.01643935 0.09512932 0.030134197 -0.00060903246 -0.05197063 0.00026649048
-0.14837402 -0.0012505918 -0.13210884 -0.05101275 0.04232509 -0.06394692 -0.1389905 -0.0261234
-0.02857591 -0.124936394 -0.024213606 -0.07878873 -0.20094751 0.040944852 -0.033343468 -0.026148664
-0.04927736 0.09078069 -0.04832621 0.0101598995 0.02710096 -0.032355867 0.025424888 0.079496786
-0.028767807 0.037789263 0.08233523 0.02543685 -0.08717943 0.12645243 -0.009817057 0.16701247
0.0071443133 0.030531678 0.15166329 -0.027767424 0.16013081 -0.13616577 0.062740475 0.06339057
-0.043622643 -0.0040909657 0.021220759 -0.006511704 0.16097125 0.09061112 -0.18248294 0.030211188
0.07448524 0.05180751 0.039298896 0.06847417 -0.13270114 0.17590354 -0.024461115 -0.068520874
0.052405268 -0.08762018 -0.05741012 0.13477938 0.01294492 0.088555716 -0.00013689118 0.008721349
0.01570517 -0.07706801 -0.1907619 0.04748411 -0.024666684 0.08235799 -0.0131685035 0.07267629
0.07187043 -0.029610869 0.025240269 0.078196935 0.014301219 0.0004285052 -0.015625447 -0.030829119
-0.13910647 -0.29177037 0.073135294 0.0208194 0.12210691 -0.17880417 0.0268825 0.19472428
0.07431121 -0.2742237 0.040080976 -0.23374535 -0.16782343 0.14170346 0.08151402 -0.0044197566
0.023387592 -0.09671085 -0.08190015 0.115196206 0.036242984 0.049976993 -0.054831043 0.09619882
0.03434055 -0.03050569 0.06152023 -0.1897734 0.011490141 0.011773061 -0.07926914 -0.16490693
0.08420535 -0.21235898 -0.005200518 -0.009108159 -0.06811026 -0.017972581 0.20487556 -0.06767743
0.069266595 0.13710053 0.03413442 -0.1601946 0.074709706 0.06375385 -0.06632618 -0.08456078
0.07039191 0.014872015 0.11956236 0.07195719 -0.012198779 0.0055673546 0.012717126 -0.07291786
-0.012554704 0.08671596 -0.07281598 -0.08674561 0.039351076 0.083411045 0.06758904 0.19367437
0.00800043 -0.16483305 -0.0042318683 0.037678774 -0.13482118 -0.0017998789 0.018043613 -0.071646795
00000000: c6f5 a43d 9aeb 86bc 5688 fb3d b471 0bbe
00000010: 377c dbbc 2b6f 4fbe de33 90bc 0b64 863d
00000020: 775f 5cbd dcaa b9bb b576 463d ae2c 36be
00000030: 1c17 54be d899 2a3e 33e4 1ebd 3d03 99ba
00000040: 71d8 913d acce 003d 0000 1f3e f4ee 51bd
00000050: a2f7 9d3d bc5e df3d 3185 1bbe d177 9dbc
00000060: 9dc2 92bd 9df3 923d eaa5 90bd bbf5 cfbb
00000070: af12 4bbe 7fd9 cdbd 6731 1fbd 1c46 7d3d
00000080: 0c1f a03d 1b60 cdbe e8fa 94bd 9e5d 99bd
00000090: 64a1 36bc 87f6 473d 7cbc a63d ef93 eb3d
000000a0: c253 a93d a7dc d43b 01b2 e5bd 7a58 7a3d
000000b0: 6e4a cabd 6439 dc3b d1ff 0d3e 73cd 6bbc
000000c0: 59d0 6a3a d3cf 5f3d 8802 833d d4dd 083e
000000d0: 7834 aa3b 97f9 7fbd 590f 5a3d dc15 803e
000000e0: 775c 5abe 5800 1bbd 004e 3ebc 83cc d5bd
000000f0: 6ea4 023d 18cf 513d 4843 a83d 8e4c 293e
00000100: 70df 21be 13cd 313e 01f0 283e 4677 543e
00000110: bf8e 993d 72b2 8eb8 4d46 7d3d 1f90 64bd
00000120: 1923 e63d a469 86be 8ce8 1c3e 0137 9f3d
00000130: 0a0a 8cbd f2cc d0bc da33 b53d 18a0 6dbe
00000140: 5a2b 93bd a7b8 ce3c ef78 2c3d 9499 a93d
00000150: f5fd 393e da01 87bd a321 0a3d bdd0 cabe
00000160: ec85 45bc 4051 5bbe 9e11 12bd 8bab 8ebe
00000170: f4ac 1f3d aa10 0cbe bdbc 3e3d c115 b93d
00000180: fe72 8b39 e61e e0bd d1ab 86bc 29d3 c23d
00000190: fedb f63c 7aa7 1fba 28df 54bd bfb7 8b39
000001a0: 5cef 17be e6ea a3ba 8a47 07be bff2 50bd
000001b0: 135d 2d3d 9af6 82bd 8753 0ebe be00 d6bc
000001c0: 0718 eabc a7de ffbd 9d5b c6bc fc5b a1bd
000001d0: 2fc5 4dbe cab5 273d 2993 08bd b935 d6bc
000001e0: 0fd7 49bd 3aeb b93d b4f1 45bd b575 263c
000001f0: d502 de3c 9687 04bd db47 d03c 36cf a23d
00000200: 77aa ebbc eac8 1a3d 609f a83d f160 d03c
00000210: 218b b2bd bf7c 013e b9d7 20bc 5105 2b3e
00000220: d81a ea3b 921d fa3c 9f4d 1b3e 8278 e3bc
00000230: 55f9 233e 0a6f 0bbe 147e 803d ead2 813d
00000240: a8ad 32bd 820d 86bb 28d7 ad3c 2260 d5bb
00000250: a6d5 243e 5392 b93d cfdc 3abe 747d f73c
00000260: b88b 983d 1d34 543d e1f7 203d 303c 8c3d
00000270: cfe2 07be 0f20 343e ad62 c8bc ac54 8cbd
00000280: e8a6 563d 3572 b3bd e026 6bbd 9b03 0a3e
00000290: ee16 543c b35c b53d 728a 0fb9 fde3 0e3c
000002a0: 21a8 803c d5d5 9dbd 1657 43be b37e 423d
000002b0: c911 cabc 4eab a83d b5c0 57bc 4fd7 943d
000002c0: ce30 933d 7e92 f2bc aec4 ce3c b725 a03d
000002d0: a94f 6a3c ffa8 e039 f000 80bc 598d fcbc
000002e0: ed71 0ebe ed62 95be f5c7 953d 728d aa3c
000002f0: 3013 fa3d 7118 37be b038 dc3c cd65 473e
00000300: 7a30 983d 0c67 8cbe f32b 243d f15a 6fbe
00000310: e8d9 2bbe b61a 113e d3f0 a63d 9bd3 90bb
00000320: 5697 bf3c 5710 c6bd 44bb a7bd fdeb eb3d
00000330: 8673 143d adb4 4c3d 8496 60bd e303 c53d
00000340: ada8 0c3d 12e7 f9bc a3fc 7b3d f553 42be
00000350: 2541 3c3c cce3 403c dc57 a2bd 5ddd 28be
00000360: db73 ac3d a274 59be 1b69 aabb 633a 15bc
00000370: 647d 8bbd 3c3b 93bc e6ca 513e 779a 8abd
00000380: a5db 8d3d 1564 0c3e 89d0 0b3d 0e0a 24be
00000390: 6701 993d 6191 823d 05d6 87bd 342e adbd
000003a0: a229 903d c1a9 733c 1cdd f43d 4b5e 933d
000003b0: 63dd 47bc 5b6e b63b 7e5b 503c f555 95bd
000003c0: 3fb2 4dbc 2398 b13d 8b20 95bd afa7 b1bd
000003d0: 982e 213d 69d3 aa3d 1f6c 8a3d 9352 463e
000003e0: 3c14 033c ffc9 28be 7cab 8abb 0f55 1a3d
000003f0: 900e 0abe eae9 ebba 33d0 933c 8ebb 92bd

fc2.bias f4 [64]
0.016628742 -0.048930127 -0.057542585 0.07573419 0.16715962 -0.0494843 -0.014719935 -0.046880294
0.11267386 -0.04234728 -0.056673758 -0.056699615 -0.11130734 -0.04061504 -0.079215154 0.012097838
-0.050463155 -0.09099661 0.01005412 0.06595436 -0.1114922 -0.031528044 -0.0011239 0.080588244
0.057795227 -0.02936767 0.028211873 0.02294387 -0.030266402 -0.036604613 0.04930007 -0.060524836
0.112336025 -0.093336135 0.110178724 0.014995436 0.08775213 -0.098622665 0.12199852 -0.065801516
-0.04842138 -0.018581798 0.042662986 0.015306988 0.040933527 0.14639895 -0.09670522 0.14565721
0.084986866 0.08480438 0.06497306 -0.09481558 -0.07104284 -0.09998817 0.15573053 -0.01325432
-0.016331833 -0.07962153 -0.098720446 -0.02941876 -0.018783163 0.00088541873 0.0030883444 0.09324762
00000000: 0039 883c f56a 48bd c6b1 6bbd 871a 9b3d
00000010: e42b 2b3e 0db0 4abd e22b 71bc 8d05 40bd
00000020: 8dc1 e63d 5774 2dbd be22 68bd db3d 68bd
00000030: 1af5 e3bd f55b 26bd 8e3b a2bd 0336 463c
00000040: 74b2 4ebd 6e5c babd 09ba 243c 1413 873d
00000050: 0656 e4bd 8d23 01bd d34f 93ba 730b a53d
00000060: b0ba 6c3d 7894 f0bc 961c e73c c8f4 bb3c
00000070: 3ff1 f7bc b8ee 15bd dfee 493d e4e8 77bd
00000080: 6e10 e63d 0427 bfbd 62a5 e13d 6baf 753c
00000090: 64b7 b33d aefa c9bd 5cda f93d f2c2 86bd
000000a0: 7f55 46bd db38 98bc 62bf 2e3d 29ca 7a3c
000000b0: eaa9 273d 9be9 153e 630d c6bd 2a27 153e
000000c0: 980d ae3d ebad ad3d 9810 853d ac2e c2bd
000000d0: e97e 91bd 99c6 ccbd d377 1f3e a628 59bc
000000e0: 56ca 85bc 9d10 a3bd f22d cabd 9dff f0bc
000000f0: 26df 99bc 721b 683a d265 4a3b 9cf8 be3d

fc3.weight f4 [10, 64]
0.017485563 -0.065109156 0.0002151385 0.13568717 -0.16069743 -0.2421106 -0.25874013 0.124378584
0.031402905 -0.12769541 0.049513154 -0.009378411 -0.14338462 -0.021772433 0.09009807 -0.08895909
-0.050145816 0.18907166 -0.09769981 0.14790855 0.15917562 0.058441106 0.30443883 -0.1896686
-0.15768243 0.11292576 0.23513553 -0.012496133 0.063106224 -0.00095355604 0.0704005 0.13488427
-0.24880159 0.020841269 -0.35345945 -0.29425567 0.026928645 -0.17810653 -0.2810097 -0.22406788
0.09075597 0.17809322 0.033658233 -0.11457698 -0.28779685 -0.20897093 -0.17877626 0.026436172
-0.2632929 -0.28684795 0.11980021 -0.02376502 -0.063953914 -0.14940462 0.10190671 -0.07556878
0.12151776 0.30869636 0.13904911 0.07658783 0.118182264 0.037940003 0.041910928 -0.09264403
0.2424514 0.09098334 -0.24926893 -0.24218482 0.045526315 0.069321804 0.1342584 0.14119588
-0.2708187 0.18151699 -0.066634566 0.03512414 -0.05419535 -0.0319785 -0.050162368 0.10755181
0.13341947 -0.054548018 0.07987297 -0.16172726 0.21671696 -0.18502577 0.054001864 -0.18401931
0.09939429 0.11164298 -0.025299625 -0.12032775 -0.18562788 0.20919512 -0.31567788 -0.10378093
-0.1946136 0.19977407 -0.25222284 0.010625237 -0.23022328 -0.22580288 0.126266 0.35605028
-0.09825804 -0.05373263 0.19595201 -0.015181824 0.025619065 -0.21995486 0.1677372 0.150087
0.026554933 -0.016056268 -0.123197615 -0.009350486 -0.31825727 0.09642946 -0.22270326 0.15318915
-0.117266804 0.21750847 0.044309296 -0.10519622 -0.16185167 -0.08791562 -0.036883496 0.17879905
0.18084516 -0.28932965 0.041969758 -0.61982137 0.07468135 0.19577971 0.16025795 -0.421533
0.14579202 -0.00238947 0.060933854 -0.043430466 -0.09568059 0.12007222 -0.021994289 0.0709676
0.0012982605 0.00807357 -0.07843457 -0.10341363 0.17932169 0.16993637 0.06712684 0.077086136
-0.07808582 0.17590594 0.054157086 -0.16115566 -0.04316969 -0.24707583 -0.13767503 0.17517664
-0.12951244 -0.14564776 0.018699342 -0.2706721 -0.07224683 0.15704311 -0.035020616 0.054258905
-0.061224457 -0.084313706 -0.021452416 -0.06282457 -0.17486028 -0.09818331 -0.035959642 -0.15595423
0.073611006 -0.073426776 0.024182899 -0.035539605 0.13537428 -0.12870322 -0.22430396 0.036005974
-0.004663681 -0.102015674 0.050870106 -0.2825591 0.21125478 -0.1792353 -0.023053585 -0.016616168
-0.3603803 -0.20932233 -0.14977029 -0.049754 0.18665968 0.017640792 -0.07505992 0.019701809
-0.08343654 0.0027334467 0.12524058 -0.029632993 -0.0073484736 0.14351249 0.05403288 -0.015874377
-0.051523145 0.013154233 0.04380917 -0.114601836 -0.05705009 0.0019045422 -0.3676416 -0.02811018
-0.06597723 0.026385464 -0.41954565 0.09615596 0.17596425 0.09039919 0.025227176 0.18201295
-0.019306997 0.04625597 0.24827383 0.18060225 0.020239925 0.089203164 -0.17594232 -0.1202689
-0.04017922 0.18331666 -0.17344815 -0.12559341 -0.07728204 -0.15093517 0.040195975 -0.38178283
0.15232234 0.055721343 0.13578288 -0.0028187437 -0.00069065235 0.15737624 0.014340748 0.21265264
0.06050959 0.014844165 -0.14687383 -0.07008744 0.06000811 -0.20463137 -0.073992096 0.016799252
00000000: e23d 8f3c f357 85bd cd96 6139 94f1 0a3e
00000010: de8d 24be d7eb 77be 9679 84be 33ba fe3d
00000020: 55a0 003d 96c2 02be 4ece 4a3d e8a7 19bc
00000030: 6bd3 12be 1a5c b2bc 5685 b83d 2f30 b6bd
00000040: b365 4dbd 009c 413e d716 c8bd 5775 173e
00000050: effe 223e f15f 6f3d 68df 9b3e 7c38 42be
00000060: 8177 21be 9f45 e73d 5ec7 703e 95bc 4cbc
00000070: d63d 813d 10f8 79ba 232e 903d 1a1f 0a3e
00000080: d8c5 7ebe 4fbb aa3c a3f8 b4be aea8 96be
00000090: 7699 dc3c 8f61 36be 81e0 8fbe 0d72 65be
000000a0: 44de b93d 125e 363e 37dd 093d 56a7 eabd
000000b0: 1c5a 93be 7afc 55be 2011 37be ac90 d83c
000000c0: 54ce 86be bcdd 92be d059 f53d dcae c2bc
000000d0: 45fa 82bd 86fd 18be 77b4 d03d cec3 9abd
000000e0: 4ede f83d 730d 9e3e e462 0e3e 15da 9c3d
000000f0: 8b09 f23d fa66 1b3d cbaa 2b3d 27bc bdbd
00000100: 2e45 783e 7955 ba3d 5b40 7fbe 4cff 77be
00000110: cd79 3a3d 97f8 8d3d 097b 093e a795 103e
00000120: c0a8 8abe 97df 393e b477 88bd 55de 0f3d
00000130: f1fb 5dbd e3fb 02bd 0e77 4dbd 2044 dc3d
00000140: 1d9f 083e be6d 5fbd 7194 a33d d59b 25be
00000150: 0deb 5d3e 6577 3dbe 0f31 5d3d 8f6f 3cbe
00000160: 3c8f cb3d 13a5 e43d 2941 cfbc 656e f6bd
00000170: 3c15 3ebe 3f37 563e 88a0 a1be 198b d4bd
00000180: ca48 47be 9391 4c3e 5a23 81be 7915 2e3c
00000190: a7bf 6bbe df38 67be e04b 013e 394c b63e
000001a0: 833b c9bd bf16 5cbd a5a7 483e 2fbd 78bc
000001b0: 13df d13c d93b 61be 4dc3 2b3e 68b0 193e
000001c0: bb89 d93c 6f88 83bc 084f fcbd c832 19bc
000001d0: 9ef2 a2be cf7c c53d 530c 64be 9edd 1c3e
000001e0: 9429 f0bd 8aba 5e3e aa7d 353d 1e71 d7bd
000001f0: 72bc 25be 1b0d b4bd 2613 17bd 1917 373e
00000200: 792f 393e 0423 94be 7be8 2b3d 9dac 1ebf
00000210: 89f2 983d 7a7a 483e a91a 243e 2cd3 d7be
00000220: 814a 153e a898 1cbb c795 793d 25e4 31bd
00000230: 2ff4 c3bd 6de8 f53d 5e2d b4bc 7657 913d
00000240: 652a aa3a 0247 043c 4ea2 a0bd 86ca d3bd
00000250: 1ba0 373e cd03 2e3e cc79 893d 56df 9d3d
00000260: 75eb 9fbd b020 343e d2d3 5d3d fd05 25be
00000270: b3d2 30bd 7201 7dbe affa 0cbe 8161 333e
00000280: e99e 04be b024 15be 5d2f 993c 8995 8abe
00000290: 25f6 93bd e9cf 203e c771 0fbd 963e 5e3d
000002a0: 7fc6 7abd aaac acbd fabc afbc 2baa 80bd
000002b0: 930e 33be 5514 c9bd 6b4a 13bd 77b2 1fbe
000002c0: 5ec1 963d c760 96bd 371b c63c fa91 11bd
000002d0: 8e9f 0a3e c7ca 03be f0af 65be 007b 133d
000002e0: cbd1 98bb 98ed d0bd 2c5d 503d 96ab 90be
000002f0: 2c53 583e 7589 37be dfda bcbc a11e 88bc
00000300: c483 b8be 9858 56be 625d 19be daca 4bbd
00000310: b723 3f3e 6c83 903c 04b9 99bd b065 a13c
00000320: c7e0 aabd a023 333b 113f 003e e4c0 f2bc
00000330: 77cb f0bb f0f4 123e 9551 5d3d fb0a 82bc
00000340: ef09 53bd da84 573c 3f71 333d 5eb4 eabd
00000350: 5bad 69bd d5a1 f93a 853b bcbe 5247 e6bc
00000360: 121f 87bd 5426 d83c b0ce d6be 6aed c43d
00000370: f92f 343e 3623 b93d 39a9 ce3c 9a61 3a3e
00000380: b529 9ebc e676 3d3d 7f3b 7e3e ccef 383e
00000390: 33ce a53c 26b0 b63d 392a 34be 8b4f f6bd
000003a0: f792 24bd 5db7 3b3e 649c 31be 8f9b 00be
000003b0: 0c46 9ebd c08e 1abe 89a4 243d 0a79 c3be
000003c0: 63fa 1b3e 103c 643d ab0a 0b3e acba 38bb
000003d0: e50c 35ba 3d27 213e 75f5 6a3c 9dc1 593e
000003e0: e7d8 773d f134 733c 1866 16be 018a 8fbd
000003f0: 10cb 753d e38a 51be 2b89 97bd 969e 893c

fc3.bias f4 [10]
-0.17061016 0.059309885 -0.00067365234 -0.040067006 0.011039891 -0.07764115 0.11363285 -0.071529895
0.1710868 -0.082745805
00000000: 6eb4 2ebe ecee 723d 0b98 30ba 4d1d 24bd
00000010: a9e0 343c 5302 9fbd 57b8 e83d 447e 92bd
00000020: 6131 2f3e a276 a9bd
