saved_models/MLP_FashionMNIST_checkpoint.pth (torch, 441541 bytes, 6 tensors)

fc1.weight f4 [128, 784]
0.008394062 -0.02292411 -0.01438927 -0.027893594 -0.017352069 -0.009579234 0.0016060942 -0.020092878
0.041118417 -0.039497085 -0.04246462 -0.101411246 -0.16797447 -0.10188308 -0.06176503 -0.12692004
-0.09123536 -0.032771833 -0.061349172 -0.059815813 0.0059413393 0.0071543446 -0.041777182 -0.036915813
0.006012261 0.010060821 -0.01420434 0.027115855 -0.02752036 0.0059200916 -0.018723777 -0.023987344
0.03400431 -0.037729327 0.031323563 0.046686094 -0.009279517 -0.018668413 -0.029471658 -0.08224979
-0.19542749 -0.21724392 -0.24065883 -0.27676168 -0.12380048 -0.056356356 -0.06683058 -0.12110519
-0.05499723 0.044200707 0.011974847 0.043246724 0.041266367 0.008355521 -0.036230586 -0.040425006
0.014070777 -0.025611944 -0.03381152 0.014393879 -0.0010767843 0.03110034 -0.0049215793 -0.00791104
-0.11298424 -0.17480947 -0.039224293 -0.07771778 -0.14544724 -0.25815752 -0.28240576 -0.10990413
-0.090848096 0.03491618 -0.1380087 -0.15526246 -0.09781044 0.016262924 0.0080402 0.071149126
0.015939403 -0.03606123 0.0009470975 0.020682512 -0.033315618 0.02580874 -0.007664214 0.024868496
0.0055997903 -0.018347379 -0.082466625 -0.11073944 -0.20523533 -0.1474481 -0.016792288 -0.02532972
-0.070709236 -0.19444504 -0.23733285 -0.038972 -0.041633196 -0.038048938 -0.105694264 -0.16085766
-0.08289363 0.009170926 -0.013050683 0.02005793 0.021478567 0.016263062 0.0060008243 -0.0076921093
-0.01589099 0.01543971 0.00074727746 0.009803749 0.024599193 0.013001038 -0.09843232 -0.078443706
-0.104727745 -0.082136326 0.087726735 0.04055485 0.028351892 -0.028881438 -0.06792274 0.08415731
0.07691373 0.015175983 0.021116914 -0.088207975 -0.11639808 0.057910793 0.04592399 0.06253241
-0.033694997 0.037784103 0.00027030392 -0.0040995744 -0.017744366 0.014983765 0.018342279 -0.021070132
0.017106336 -0.02460073 -0.116373226 -0.12914367 -0.12309411 -0.021915903 0.04601891 -0.0047003594
0.0055705984 -0.077009745 -0.091285035 -0.013015703 -0.040584963 0.04109198 0.040293053 -0.05116009
-0.12042183 -0.03663907 -0.037535436 0.03529031 0.01491666 0.010121986 0.03610156 -0.01937387
-0.009055054 0.04820073 -0.01395174 0.032579754 0.026641417 -0.10358827 -0.10812609 -0.02695299
-0.041309044 -0.022703541 0.07878044 0.01844014 0.049608566 -0.062332414 -0.10121892 0.017450562
0.0036454638 0.027398003 0.081422664 0.07896036 0.00047567976 -0.05826631 -1.0422763e-05 0.02078502
0.04054745 0.023491854 -0.03935365 -0.021996722 0.056417245 0.04697956 0.027744628 0.022833964
-0.01676057 -0.117900215 -0.16370493 -0.15013628 -0.10896105 0.03456076 0.0844546 0.058635
0.055138487 0.08093705 0.0005797081 0.04670412 0.036769476 0.0428697 0.011609062 -0.022480339
-0.034534644 -0.072947994 -0.11269998 0.03440421 0.038472548 -0.03660446 -0.024601575 0.04260484
-0.0058852304 0.018339686 0.034799382 0.060582366 -0.02997571 -0.09396674 -0.1451694 -0.1671743
-0.032831676 -0.015054947 0.060365938 0.013825486 0.015824482 0.08235786 0.038235363 0.05438444
-0.05409156 -0.028478716 0.045716133 -0.023987956 -0.085523315 -0.07037021 -0.06205362 -0.04137114
0.007617535 -0.05037101 0.007578965 0.059746183 0.060604412 0.0015796949 -0.025227306 0.07993034
00000000: 3f87 093c 58cb bbbc f9c0 6bbc 1b81 e4bc
00000010: ed25 8ebc 38f2 1cbc 9483 d23a d299 a4bc
00000020: c96b 283d b2c7 21bd 62ef 2dbd b3b0 cfbd
00000030: 8001 2cbe 14a8 d0bd 54fd 7cbd 54f7 01be
00000040: 9bd9 babd c23b 06bd 4549 7bbd 6d01 75bd
00000050: 91af c23b fe6e ea3b 8d1e 2bbd 0935 17bd
00000060: 8002 c53b 24d6 243c 52b9 68bc 1222 de3c
00000070: 6172 e1bc 54fd c13b 9b62 99bc 1b81 c4bc
00000080: 1a48 0b3d 118a 1abd 234d 003d eb39 3f3d
00000090: 1e09 18bc 80ee 98bc 8c6e f1bc 9472 a8bd
000000a0: 251e 48be 3175 5ebe 456f 76be b5b3 8dbe
000000b0: 1b8b fdbd ecd5 66bd 79de 88bd ff05 f8bd
000000c0: c744 61bd cd0b 353d 2632 443c 7a23 313d
000000d0: ec06 293d 98e5 083c 8666 14bd b194 25bd
000000e0: 1e89 663c 24d0 d1bc f37d 0abd 4ed4 6b3c
000000f0: e322 8dba 24c6 fe3c 3345 a1bb 4f9d 01bc
00000100: 4864 e7bd 4101 33be a7a9 20bd 802a 9fbd
00000110: 1ff0 14be 392d 84be 7d97 90be 6b15 e1bd
00000120: 910e babd 4504 0f3d 2752 0dbe 1ffd 1ebe
00000130: d750 c8bd d339 853c 0bbb 033c a2b6 913d
00000140: 5a93 823c f1b4 13bd a346 783a 5f6e a93c
00000150: f575 08bd da6c d33c 1624 fbbb 04b9 cb3c
00000160: 727e b73b 3e4d 96bc 43e4 a8bd 5ccb e2bd
00000170: 3629 52be a2fc 16be fb8f 89bc 4680 cfbc
00000180: 01d0 90bd 9a1c 47be 6207 73be 1ba1 1fbd
00000190: 9287 2abd 34d9 1bbd 3c76 d8bd dfb7 24be
000001a0: 23c4 a9bd a741 163c 88d2 55bc 8750 a43c
000001b0: d2f3 af3c 1d3a 853c 90a2 c43b 170e fcbb
000001c0: d22d 82bc d6f6 7c3c f1e4 433a e79f 203c
000001d0: 3f84 c93c 4e02 553c e296 c9bd 18a7 a0bd
000001e0: 807b d6bd 1737 a8bd 13aa b33d d81c 263d
000001f0: 3a42 e83c c498 ecbc 141b 8bbd ab5a ac3d
00000200: f284 9d3d b0a4 783c 61fd ac3c 62a6 b4bd
00000210: 1e62 eebd de33 6d3d cb1a 3c3d fe10 803d
00000220: c403 0abd 81c3 1a3d 94b7 8d39 b955 86bb
00000230: a25c 91bc 777e 753c 8c42 963c 459b acbc
00000240: 9622 8c3c 7887 c9bc 1655 eebd 3d3e 04be
00000250: c418 fcbd fb88 b3bc 537e 3c3d 7905 9abb
00000260: 9189 b63b 49b7 9dbd a6f3 babd d13f 55bc
00000270: 6b3c 26bd 1050 283d 540a 253d 3e8d 51bd
00000280: b89f f6bd d912 16bd c2be 19bd 928c 103d
00000290: 0265 743c b0d6 253c 3bdf 133d f3b5 9ebc
000002a0: a65b 14bc 216e 453d d795 64bc 5972 053d
000002b0: 1a3f da3c 1626 d4bd 3671 ddbd 84cc dcbc
000002c0: ac33 29bd c7fc b9bc a457 a13d c70f 973c
000002d0: 5a32 4b3d 4650 7fbd dd4b cfbd 7bf4 8e3c
000002e0: bce8 6e3b c771 e03c edc0 a63d f8b5 a13d
000002f0: a864 f939 a7a8 6ebd 6ddd 2eb7 5945 aa3c
00000300: 1515 263d fd71 c03c 4b31 21bd 7832 b4bc
00000310: c515 673d a46d 403d b448 e33c 4b0e bb3c
00000320: 774d 89bc ab75 f1bd 44a2 27be 53bd 19be
00000330: f926 dfbd 958f 0d3d 89f6 ac3d 412b 703d
00000340: e5d8 613d 53c2 a53d 8df7 173a d24c 3f3d
00000350: 979b 163d 2398 2f3d ef33 3e3c b028 b8bc
00000360: 3374 0dbd c265 95bd 3fcf e6bd 6eeb 0c3d
00000370: 6495 1d3d 8fee 15bd 3e89 c9bc 6a82 2e3d
00000380: e4d8 c0bb 1c3d 963c cc89 0e3d 3725 783d
00000390: 9f8f f5bc a271 c0bd 4aa7 14be bd2f 2bbe
000003a0: 827a 06bd 06a9 76bc 4642 773d 4b84 623c
000003b0: 58a2 813c 3dab a83d af9c 1c3d 38c2 5e3d
000003c0: 1d8f 5dbd 324c e9bc d740 3b3d 6482 c4bc
000003d0: d926 afbd 421e 90bd f02b 7ebd c974 29bd
000003e0: 849c f93b d551 4ebd f758 f83b 6ab8 743d
000003f0: 553c 783d c40d cf3a 7fa9 cebc 85b2 a33d

fc1.bias f4 [128]
-0.029907718 -0.024406787 0.011312116 -0.034968764 0.007344872 0.02204407 0.009182026 -0.03621543
-0.034089163 0.081475794 -0.021402378 0.019222612 -0.014386472 -0.054865405 -0.074649096 -0.0109718
0.012932086 0.032297518 -0.013419766 -0.010384659 0.0060333386 -0.011244097 -0.019967137 -0.044887636
0.018640585 -0.011347331 -0.03575297 -0.01123298 -0.019682474 -0.01687777 0.042434875 -0.027523132
0.015074925 -0.013834362 -0.07237075 0.025000282 -0.020565195 -0.017386256 -0.055910707 -0.020733383
-0.007341289 -0.03692868 -0.0074990178 -0.06934391 -0.07326967 0.001270478 -0.026183793 -0.02350091
0.0071787154 0.019527785 -0.04498561 -0.009266718 0.010844158 -0.023874417 -0.054876857 -0.0132547505
0.025985625 0.060814995 0.011694095 -0.0353198 0.039589923 -0.039901 -0.025177335 -0.02079113
0.1557358 -0.062979706 0.019372292 -0.0036990917 0.026844675 -0.08841765 -0.020580664 0.018753272
-0.00612853 -0.025840534 -0.018998625 -0.061740022 0.043593753 0.070123576 0.001694262 -0.010786137
-0.036947273 -0.021606572 -0.02166742 -0.04681636 -0.040045116 0.013504063 0.0031419187 0.045347225
-0.019045189 0.026635617 -0.002133859 -0.015493844 0.08452687 -0.0043833912 -0.03963977 0.026080256
-0.046798903 -0.044544924 -0.043997336 -0.052437093 0.00074425346 0.0068251514 -0.0044217007 -0.010376642
-0.05275377 0.0069688177 -0.0075663715 0.017709952 0.007689371 -0.010266613 0.03953814 -0.0632826
-0.059078544 -0.008617973 -0.054012556 -0.007779022 -0.09218472 -0.039069064 -0.0017417236 0.031558193
-0.038417377 -0.034807567 0.009674507 -0.030549895 0.0048988382 -0.05582587 -0.05512589 -0.044510372
00000000: 0801 f5bc bef0 c7bc 7456 393c 683b 0fbd
00000010: 41ad f03b c495 b43c 3570 163c a156 14bd
00000020: 14a1 0bbd c8dc a63d 0a54 afbc bd78 9d3c
00000030: 3db5 6bbc 8cba 60bd a0e1 98bd 11c3 33bc
00000040: 1ae1 533c 674a 043d 94de 5bbc 6b24 2abc
00000050: 50b3 c53b 2939 38bc 1f92 a3bc 19dc 37bd
00000060: 24b4 983c 28ea 39bc b571 12bd 880a 38bc
00000070: 243d a1bc 4043 8abc 31d0 2d3d 3178 e1bc
00000080: d1fc 763c 85a9 62bc 1e37 94bd 64cd cc3c
00000090: 5778 a8bc 9f6d 8ebc a002 65bd 0ed9 a9bc
000000a0: 328f f0bb 8742 17bd 52ba f5bb 2e04 8ebd
000000b0: 690e 96bd 2b86 a63a 657f d6bc fb84 c0bc
000000c0: 6e3b eb3b bcf8 9f3c d542 38bd 6fd3 17bc
000000d0: b2ab 313c 4894 c3bc 8ec6 60bd 742a 59bc
000000e0: cedf d43c 2519 793d 9798 3f3c 7fab 10bd
000000f0: 0b29 223d 3b6f 23bd b340 cebc 2952 aabc
00000100: 3579 1f3e 81fb 80bd a4b2 9e3c 766c 72bb
00000110: 5de9 db3c 5014 b5bd c898 a8bc 76a0 993c
00000120: d6d1 c8bb 87af d3bc 01a3 9bbc 1be3 7cbd
00000130: 5d8f 323d f39c 8f3d 0012 de3a 56b8 30bc
00000140: 0656 17bd 4400 b1bc e07f b1bc 83c2 3fbd
00000150: 5906 24bd 2540 5d3c a6e8 4d3b 03be 393d
00000160: a804 9cbc f032 da3c 37d8 0bbb e4d9 7dbc
00000170: 6c1c ad3d 8da2 8fbb 505d 22bd 43a6 d53c
00000180: 35b0 3fbd bd74 36bd 8d36 34bd 47c8 56bd
00000190: 011a 433a 85a5 df3b eae3 90bb cb02 2abc
000001a0: 5614 58bd ae5a e43b 53ef f7bb 7614 913c
000001b0: 1ef7 fb3b 4c35 28bc bff2 213d 4f9a 81bd
000001c0: 58fc 71bd 6632 0dbc 453c 5dbd 2be7 febb
000001d0: 58cb bcbd e206 20bd 8c4a e4ba 2a43 013d
000001e0: 8a5b 1dbd 6192 0ebd d381 1e3c c643 fabc
000001f0: 6f86 a03b aba9 64bd afcb 61bd 8250 36bd

fc2.weight f4 [64, 128]
-0.14773598 0.06121159 0.055546682 0.102515675 -0.07678073 0.018745158 0.07037677 0.09215365
-0.15023029 0.09283467 0.023659617 0.08881433 -0.04061255 -0.045353815 0.057963993 0.025248904
0.09586581 0.025997622 -0.11385602 -0.110502206 0.122861415 0.03131844 -0.047250148 0.032857515
0.02869298 0.074430026 0.011628711 0.0014755699 -0.06554059 0.14183599 0.07448332 0.035452694
0.017572787 -0.0036518776 -0.071674354 -0.1519215 0.117791444 -0.10948891 -0.20785055 0.079206936
0.07084347 0.06615029 0.01871283 0.022219554 -0.046932932 0.044545755 -0.1869188 0.031003987
-0.04609274 -0.09401995 -0.12191254 -0.056186758 0.02459152 0.003035259 0.17196189 0.01187782
0.055151343 0.079308294 -0.052043173 -0.17724866 0.014618313 -0.014184387 -0.013625891 0.013852043
-0.21351916 -0.053038113 0.098861635 -0.07055866 -0.16470091 -0.0359561 -0.23599356 -0.016619623
-0.04735246 -0.039328884 0.094713 0.0066270204 0.09546694 -0.052478816 0.19379301 0.067840375
0.08699516 0.041204844 0.026572362 -0.19399486 -0.1221095 0.08202242 0.0050232396 0.030063799
-0.07462867 -0.036283217 0.033134587 0.025213301 -0.09433695 -0.11509562 0.025398402 0.09637464
-0.11162605 -0.105135754 0.08446627 -0.014960165 -0.057364695 0.021786248 -0.06260139 0.019286295
0.0738065 -0.10659387 -0.0203542 0.013238743 0.095341 -0.0067731948 0.032206327 0.016641317
0.06374899 0.18878275 -0.109226555 -0.0066775037 -0.037742525 0.027710145 0.12949352 0.15246157
0.030810079 -0.04892131 0.103585474 -0.029747618 0.10818339 -0.07369517 -0.01771177 -0.13093103
0.0001019382 -0.01687457 0.13273735 -0.10907721 -0.11315125 -0.07418335 -0.18065219 0.053976156
-0.08679074 -0.058942627 0.05822542 0.016327623 -0.105183885 0.019030366 -0.11365841 -0.04371185
0.06731057 0.010882869 -0.02252657 -0.19128741 -0.06249326 0.11507175 0.063263796 -0.06570149
0.0025981697 0.17338058 -0.013451756 -0.23656496 -0.033999078 -0.07447803 -0.037419178 -0.04226579
-0.07735831 -0.14116375 -0.23283097 0.115412496 -0.22178902 -0.007848216 0.048636347 -0.0006962598
-0.1461302 0.15963285 -0.16681439 0.00995077 0.112906285 -0.12276004 0.006291271 -0.08894474
0.058537517 -0.073395886 -0.0244862 0.036314033 0.13825364 0.015723344 0.02828843 -0.2244532
-0.025932457 -0.040174663 -0.2724338 -0.0069581615 -0.13370912 0.06275634 -0.03218986 0.021876551
-0.3074175 0.032023285 -0.047929987 0.043396506 -0.19351935 0.117989354 -0.34115514 0.13234633
0.012404624 -0.098244146 -0.022441225 0.10592434 0.024640212 0.08563802 -0.02676346 -0.08569874
-0.09191759 0.0908075 0.15716615 -0.026522292 -0.06764197 0.04457776 -0.044279125 -0.0013534134
-0.089249104 0.0029575562 0.19406295 0.08475926 0.08371359 -0.022424158 -0.07549489 -0.1517333
-0.032879 0.07149298 -0.016007278 0.07885399 0.05104156 -0.18557408 -0.14638756 0.039894406
-0.089357056 0.053100243 -0.059616983 0.030050578 -0.10510571 -0.040659767 0.057622373 -0.02209903
-0.10352536 0.26068145 -0.29250103 0.10601808 -0.08818741 -0.17165098 0.103726 0.038633008
-0.002237854 0.14390719 -0.08533346 -0.18576995 -0.044859517 0.03997018 -0.34186623 -0.14585464
00000000: 1a48 17be 01b9 7a3d eb84 633d bdf3 d13d
00000010: 373f 9dbd 728f 993c b221 903d 0ebb bc3d
00000020: f8d5 19be 1a20 be3d d0d1 c13c 4ae4 b53d
00000030: 5859 26bd ecc4 39bd a76b 6d3d cad6 ce3c
00000040: 4b55 c43d f7f8 d43c 582d e9bd fb4e e2bd
00000050: c49e fb3d c447 003d 5f89 41bd 9a95 063d
00000060: 8a0d eb3c c56e 983d 5986 3e3c e967 c13a
00000070: 253a 86bd 743d 113e b68a 983d d836 113d
00000080: cef4 8f3c 5754 6fbb 01ca 92bd 4f91 1bbe
00000090: a43c f13d b93b e0bd c6d6 54be 3f37 a23d
000000a0: 6216 913d ce79 873d a64b 993c c805 b63c
000000b0: bf3c 40bd 9c75 363d a467 3fbe 13fc fd3c
000000c0: becb 3cbd 888d c0bd 48ad f9bd 1624 66bd
000000d0: 2874 c93c 32eb 463b c716 303e 309b 423c
000000e0: 60e6 613d 636c a23d 392b 55bd ac80 35be
000000f0: a681 6f3c a265 68bc 213f 5fbc aef3 623c
00000100: c4a4 5abe 7e3e 59bd f877 ca3d 0f81 90bd
00000110: 5ba7 28be b446 13bd 4ca8 71be e025 88bc
00000120: a7f4 41bd 5317 21bd e4f8 c13d 7a27 d93b
00000130: 2c84 c33d 07f4 56bd ad71 463e e5ef 8a3d
00000140: 852a b23d 69c6 283d 48ae d93c 97a6 46be
00000150: 8c14 fabd 5ffb a73d fd99 a43b 5b48 f63c
00000160: ebd6 98bd b69d 14bd 22b8 073d 208c ce3c
00000170: bb33 c1bd 41b7 ebbd 4f10 d03c 1160 c53d
00000180: 339c e4bd 6a51 d7bd a7fc ac3d 7b1b 75bc
00000190: 3ef7 6abd 1379 b23c 2835 80bd 4bfe 9d3c
000001a0: dd27 973d e34d dabd dabd a6bc 50e7 583c
000001b0: 2442 c33d adf1 ddbb c8ea 033d 5f53 883c
000001c0: d58e 823d 4450 413e 2cb2 dfbd f6ce dabb
000001d0: e897 1abd 6300 e33c f399 043e e31e 1c3e
000001e0: 6b65 fc3c b661 48bd 9f24 d43d 47b1 f3bc
000001f0: 418f dd3d 7eed 96bd 4618 91bc c912 06be
00000200: a8c7 d538 8a3c 8abc 4dec 073e df63 dfbd
00000210: d8bb e7bd 71ed 97bd e3fc 38be 1a16 5d3d
00000220: 58bf b1bd d36d 71bd c77d 6e3d 82c1 853c
00000230: a66a d7bd 92e5 9b3c bec5 e8bd 320b 33bd
00000240: 20da 893d 104e 323c a489 b8bc d9e0 43be
00000250: eff8 7fbd bdaa eb3d 7390 813d 818e 86bd
00000260: 0e46 2a3b ae8a 313e c164 5cbc 163e 72be
00000270: 9e42 0bbd f087 98bd da44 19bd e51e 2dbd
00000280: 096e 9ebd 3b8d 10be 3e6b 6ebe 635d ec3d
00000290: a91c 63be ce95 00bc e836 473d 3485 36ba
000002a0: 28a3 15be cb76 233e 64d1 2abe 8e08 233c
000002b0: 693b e73d 9e69 fbbd 0227 ce3b a928 b6bd
000002c0: 09c5 6f3d 9550 96bd 4997 c8bc 06be 143d
000002d0: 5d92 0d3e 3ece 803c 23bd e73c 0fd7 65be
000002e0: 4e70 d4bc 308e 24bd 717c 8bbe 4a01 e4bb
000002f0: 0beb 08be 6586 803d 84d9 03bd 7436 b33c
00000300: d465 9dbe d92a 033d 3c52 44bd 89c0 313d
00000310: f029 46be 67a4 f13d e3ab aebe cc85 073e
00000320: c43c 4b3c 3a34 c9bd a9d6 b7bc dcee d83d
00000330: 45da c93c fc62 af3d 0b3f dbbc d282 afbd
00000340: 4a3f bcbd 48f9 b93d 2af0 203e 4745 d9bc
00000350: e087 8abd 2b97 363d 075e 35bd 0565 b1ba
00000360: 3cc8 b6bd 8fd3 413b 70b8 463e 4396 ad3d
00000370: 0872 ab3d deb2 b7bc 119d 9abd f95f 1bbe
00000380: 21ac 06bd e96a 923d b221 83bc 337e a13d
00000390: f410 513d 2207 3ebe 9fe6 15be 5168 233d
000003a0: d500 b7bd a47f 593d f030 74bd a12c f63c
000003b0: aa41 d7bd db8a 26bd 7005 6c3d 0609 b5bc
000003c0: 1b05 d4bd 0a78 853e b2c2 95be 0220 d93d
000003d0: 9a9b b4bd 46c5 2fbe 4c6e d43d a53d 1e3d
000003e0: f6a8 12bb 685c 133e 4fc3 aebd 7a3a 3ebe
000003f0: 9dbe 37bd c5b7 233d 1709 afbe eb5a 15be

fc2.bias f4 [64]
0.11814778 0.06079564 -0.08435242 0.072871074 -0.026484733 0.04015723 -0.008762835 0.042042542
-0.0008632323 -0.017712297 0.039858222 0.00094799884 -0.058545895 -0.05691516 0.08614846 -0.022895142
-0.08136344 0.15624571 -0.024999442 0.017995758 -0.01971158 -0.10352107 0.14165346 -0.024629239
-0.059212416 0.054021776 0.06215072 0.08370409 0.09240151 -0.0001138734 -0.00088114047 -0.13231362
0.016067505 0.046689976 -0.036274917 0.15032654 -0.028001286 0.13368873 0.07674427 0.03789648
0.056962773 0.09083395 -0.026931163 -0.0681742 -0.019244174 -0.06678987 -0.116234004 -0.046591047
0.059570305 0.021663994 0.019761879 0.011600425 0.06070737 0.064645596 0.100591026 0.13702558
-0.05972309 -0.0029769903 0.069257885 0.083795965 0.12039589 0.038265433 0.030762661 -0.08030603
00000000: 77f7 f13d d904 793d f6c0 acbd 6e3d 953d
00000010: 83f6 d8bc e87b 243d fe91 0fbc cd34 2c3d
00000020: 8a4a 62ba 6119 91bc 6042 233d 2083 783a
00000030: d2cd 6fbd df1f 69bd 9b6e b03d 988e bbbc
00000040: e0a1 a6bd e0fe 1f3e a1cb ccbc d76b 933c
00000050: 2e7a a1bc db02 d4bd 9b0d 113e 42c3 c9bc
00000060: b888 72bd f045 5d3d c191 7e3d 0d6d ab3d
00000070: 013d bd3d 51cf eeb8 56fc 66ba 397d 07be
00000080: 00a0 833c fd3d 3f3d 0295 14bd 33ef 193e
00000090: f462 e5bc b3e5 083e 1a2c 9d3d 5739 1b3d
000000a0: cc51 693d 2607 ba3d be9e dcbc ea9e 8bbd
000000b0: f5a5 9dbc 21c9 88bd 180c eebd 41d6 3ebd
000000c0: feff 733d b078 b13c aae3 a13c b50f 3e3c
000000d0: 4ba8 783d e964 843d ab02 ce3d 6f50 0c3e
000000e0: 33a0 74bd 9c19 43bb 14d7 8d3d 389d ab3d
000000f0: 1f92 f63d 37bc 1c3d fa01 fc3c 7d77 a4bd

fc3.weight f4 [10, 64]
-0.005380687 -0.24315259 0.15440059 0.12623166 -0.20200515 0.06672285 -0.07080073 0.05637773
-0.0011596665 -0.25065967 -0.226223 0.012764159 0.031399876 0.10553033 0.079003096 0.13368365
0.006441155 0.01322182 -0.15328129 -0.00015854601 -0.051134735 0.1289344 0.0014812116 0.062272366
-0.041680798 0.02543575 -0.09824003 -0.10304521 -0.08603535 -0.2093586 -0.0571155 -0.07025703
-0.095579594 0.13340205 -0.29358983 -0.06787829 0.16314794 -0.18633717 -0.20659226 -0.06725632
0.13580163 -0.18648715 -0.08998582 -0.18498984 -0.14623292 0.054659884 -0.07518625 0.007022077
0.22511113 0.1403346 -0.0133047225 0.14532968 0.11088812 0.17790474 0.05276257 -0.15948273
0.06272568 -0.0337673 0.070278846 0.052799564 -0.13955386 -0.27309126 -0.051675625 -0.15651123
-0.293436 -0.28952354 -0.0041455347 -0.112693205 -0.076122 0.14668447 -0.33434162 0.01154506
0.003626989 -0.024231613 0.09781435 0.02642163 -0.30475178 -0.3577162 0.004272088 -0.22639696
-0.5108236 0.21905906 0.024427645 -0.15426789 -0.02682252 -0.12737049 -0.22180624 -0.15209183
0.09587852 -0.0059693544 0.14118771 0.07770697 0.1517531 0.22708003 -0.12938832 -0.09544795
-0.0022766774 -0.02802104 -0.35374 -0.22273494 0.015532631 -0.12075104 0.045822453 0.14307481
0.13884476 -0.00057599007 -0.11420723 0.20260172 -0.14628501 0.08657329 -0.10774584 0.017681243
-0.20384204 0.0779055 0.020721957 0.034434132 -0.24392144 0.10559571 -0.16512325 0.07194863
-0.12858236 0.06301067 0.040332995 0.009051395 -0.30424905 -0.014627114 -0.1981718 0.3407227
-0.01489098 -0.16285004 -0.10195733 0.036469024 -0.07118926 -0.1278285 0.09499544 0.08213347
0.091095366 0.15155803 0.1324422 0.057408046 -0.17475764 0.119663715 -0.303524 0.12185878
-0.0026105097 -0.15426292 -0.06271349 0.056590684 -0.022605726 -0.20871884 0.10957964 0.0842608
-0.21898946 0.09599776 -0.14938349 -0.2565765 0.055787772 -0.02856579 0.021768617 0.008367307
-0.014293333 -0.09107668 -0.087736204 0.03997336 0.19531892 -0.07774982 0.08171535 -0.1731342
-0.20538594 0.102280445 0.1553575 0.009328566 0.18545395 0.10894809 0.015347785 0.08227821
-0.25162947 0.032625798 -0.008101261 -0.08984499 0.05082263 0.12784684 0.06836279 0.002420959
0.012507355 -0.17910461 0.10859604 -0.27780637 -0.14897574 -0.115214825 -0.20912781 -0.31887782
0.023815328 0.10642508 -0.10908938 -0.01708781 0.25760204 -0.118927166 -0.12960899 0.18500684
-0.13833305 0.11639518 0.101007365 -0.2194799 0.08156901 -0.09426179 0.12745067 -0.19618997
0.03225915 -0.32520473 0.10008022 -0.09883755 -0.18685757 -0.08895064 -0.047166843 -0.12859416
-0.003313249 0.077831425 -0.035085253 0.05169923 0.08310467 0.107387535 -0.0015325317 -0.023312323
-0.029245857 0.10752752 0.17259492 0.13488908 0.11342503 -0.11840321 0.14031973 0.075156115
0.113153495 -0.22796305 -0.41174555 -0.16889243 0.13789053 -0.03390657 -0.041016635 0.10932505
-0.12540902 0.064133406 -0.22240132 -0.20872995 0.09614384 -0.10098682 -0.07125276 0.14321423
-0.2720672 -0.24809608 -0.060911164 -0.19789137 -0.17789483 0.1108141 -0.16969821 0.06278417
00000000: 7950 b0bb fefc 78be 301b 1e3e df42 013e
00000010: 70da 4ebe fda5 883d f9ff 90bd 56ec 663d
00000020: f3ff 97ba 7756 80be 01a7 67be c320 513c
00000030: 289d 003d 4920 d83d 60cc a13d 5ee4 083e
00000040: 5310 d33b 55a0 583c c5f5 1cbe 5f3f 26b9
00000050: a872 51bd 6107 043e 3725 c23a 4f11 7f3d
00000060: 7cb9 2abd a25e d03c 1232 c9bd 5e09 d3bd
00000070: 4d33 b0bd 1a62 56be f1f1 69bd ebe2 8fbd
00000080: 3cbf c3bd 8c9a 083e 6851 96be c603 8bbd
00000090: 4110 273e 2ccf 3ebe ec8c 53be aebd 89bd
000000a0: 950f 0b3e 7df6 3ebe 7c4a b8bd fa6d 3dbe
000000b0: 15be 15be 0be3 5f3d 40fb 99bd 7419 e63b
000000c0: 8883 663e e0b3 0f3e 0dfc 59bc 4ed1 143e
000000d0: 5019 e33d a92c 363e 911d 583d 714f 23be
000000e0: 5276 803d 954f 0abd 5bee 8f3d 5b44 583d
000000f0: 35e7 0ebe 9ed2 8bbe d2a9 53bd 7b44 20be
00000100: 3e3d 96be 6e3c 94be 44d7 87bb b2cb e6bd
00000110: dae5 9bbd 7434 163e d32e abbe 7e27 3d3c
00000120: c7b2 6d3b 6081 c6bc e452 c83d 2d72 d83c
00000130: 6d08 9cbe 9426 b7be dffc 8b3b 9bd4 67be
00000140: 56c5 02bf 0551 603e 7c1c c83c 67f8 1dbe
00000150: e7ba dbbc 696d 02be 2d21 63be f6bd 1bbe
00000160: f55b c43d 939a c3bb 8393 103e d524 9f3d
00000170: 2a65 1b3e ab87 683e 5f7e 04be 377a c3bd
00000180: 4f34 15bb 618c e5bc 691d b5be a114 64be
00000190: 947c 7e3c 524c f7bd 53b0 3b3d 3482 123e
000001a0: 522d 0e3e 0afe 16ba 7be5 e9bd d376 4f3e
000001b0: bdcb 15be 564d b13d daa9 dcbd 41d8 903c
000001c0: f8bb 50be eb8c 9f3d 18c1 a93c ce0a 0d3d
000001d0: 8bc6 79be 9042 d83d 1216 29be ce59 933d
000001e0: 18ab 03be bd0b 813d 3634 253d 4d4c 143c
000001f0: 88c6 9bbe 90a6 6fbc 8ced 4abe 3573 ae3e
00000200: 4cf9 73bc 29c2 26be 01cf d0bd 8b60 153d
00000210: adcb 91bd 79e5 02be f88c c23d 9835 a83d
00000220: 3590 ba3d 0732 1b3e ee9e 073e b324 6b3d
00000230: abf3 32be 4012 f53d 7f67 9bbe 1991 f93d
00000240: 1615 2bbb 19f7 1dbe ee6f 80bd a2cb 673d
00000250: a52f b9bc 64ba 55be 4a6b e03d ed90 ac3d
00000260: c63e 60be 799a c43d fcf7 18be ff5d 83be
00000270: b881 643d ce02 eabc 1954 b23c 0717 093c
00000280: 952e 6abc 6986 babd 0aaf b3bd 1bbb 233d
00000290: af01 483e 4c3b 9fbd 615a a73d 174a 31be
000002a0: b150 52be 6978 d13d 0916 1f3e d7d6 183c
000002b0: a4e7 3d3e 2d20 df3d 4775 7b3c 7a81 a83d
000002c0: 94d5 80be a1a2 053d 27bb 04bc a600 b8bd
000002d0: 642b 503d 48ea 023e ca01 8c3d f4a8 1e3b
000002e0: a6eb 4c3c 3367 37be 9a67 de3d a33c 8ebe
000002f0: 198d 18be c0f5 ebbd 9a25 56be f443 a3be
00000300: 5d18 c33c 64f5 d93d 416a dfbd bcfb 8bbc
00000310: 6ae4 833e 1690 f3bd 38b8 04be 6f72 3d3e
00000320: 2ea7 0dbe 9960 ee3d f3dc ce3d 57bf 60be
00000330: a70d a73d 530c c1bd 6e82 023e 06e6 48be
00000340: 2c22 043d 3c81 a6be dcf6 cc3d 576b cabd
00000350: 9757 3fbe c12b b6bd 0532 41bd 30ae 03be
00000360: 1823 59bb 1566 9f3d 8eb5 0fbd 92c2 533d
00000370: c832 aa3d ffed db3d 3bdf c8ba 7cf9 bebc
00000380: 0295 efbc 6337 dc3d b9bc 303e 5d20 0a3e
00000390: 624b e83d 627d f2bd faaf 0f3e 73eb 993d
000003a0: 05bd e73d 256f 69be 50d0 d2be 23f2 2cbe
000003b0: 2d33 0d3e 9ee1 0abd 0f01 28bd d0e5 df3d
000003c0: 396b 00be 6058 833d 2cbd 63be 4ebd 55be
000003d0: 10e7 c43d 2ed2 cebd f8ec 91bd c0a6 123e
000003e0: 644c 8bbe e60c 7ebe fc7d 79bd 09a4 4abe
000003f0: 102a 36be 81f2 e23d 5ec5 2dbe fd94 803d

fc3.bias f4 [10]
-0.076380916 -0.097251676 -0.061686546 0.02489999 -0.05385495 -0.0029711032 0.06253567 -0.06142946
0.23031831 -0.05708899
00000000: 996d 9cbd e32b c7bd 08ab 7cbd 10fb cb3c
00000010: 0297 5cbd d7b6 42bb b412 803d 759d 7bbd
00000020: 90d8 6b3e 25d6 69bd
